color.pt (torch, 389289 bytes, 21 tensors)

weight f4 [16, 3, 2, 2]
000000 a5 49 a6 bc 58 36 a6 be 95 21 82 bd 83 5b 49 bc
       -0.020298788 -0.32463336 -0.063540615 -0.0122898845
000010 1f ee 7a be b5 81 94 3e ee 41 9f 3e 81 57 6a bd
       -0.24504898 0.2900521 0.31104988 -0.057212356
000020 b7 61 2a bc 2a 52 af 3e 23 76 11 3e 7b 72 13 be
       -0.010399274 0.34242374 0.14205222 -0.1439914
000030 c5 c1 80 3e 3a 9a 53 be f4 75 bc be 7e 84 74 3e
       0.25147834 -0.20664302 -0.3680874 0.23878667
000040 a0 f9 ee 3d 1d b5 15 bd d3 77 36 be 93 f0 8a bd
       0.11668706 -0.036549676 -0.17819147 -0.06784167
000050 1a 26 c3 bd c7 d8 d9 bd d2 d6 9b 3d 94 29 83 be
       -0.09528752 -0.1063705 0.07609333 -0.2561766
000060 95 bf fd 3c 61 d9 44 bd 11 99 0a 3e 84 81 50 3e
       0.030975142 -0.04805887 0.13534953 0.20361906
000070 fa 88 70 3e af 60 21 3d 2f 52 3c 3e 73 0e 80 3e
       0.23489752 0.039398845 0.18390726 0.25011024
000080 6d 4c cc be a0 8c d8 bd f4 5c 45 be 90 f7 d0 3d
       -0.39902058 -0.10573697 -0.1927374 0.10203469
000090 4c 59 18 3e d6 e1 16 bd 2a 80 db 3d b9 a0 d6 3d
       0.14877814 -0.036836468 0.10717805 0.10479874
0000a0 58 a3 40 be c4 57 2f 3e f1 87 70 be f7 95 52 3e
       -0.1881231 0.17123324 -0.23489358 0.2056502
0000b0 94 1a 8b be df a5 6b 3e 79 86 f3 bc a7 a4 97 3e
       -0.27168715 0.23012494 -0.029727207 0.29617807
0000c0 91 35 cd bd 34 c0 76 be 0c d7 ba bd 8d eb a9 3e
       -0.100199826 -0.24096757 -0.09123048 0.33187523
0000d0 f0 5c 36 be 3b 1f 45 3e 2f 34 57 3e bd 96 5a be
       -0.1780889 0.19250195 0.21016 -0.21346565
0000e0 a8 8a 15 bd b2 9b 06 be 34 1a b8 bd 13 b6 b0 bd
       -0.036509186 -0.1314533 -0.08989373 -0.08628478
0000f0 6b bd 43 3e 79 5c b3 bd a0 14 9a be 87 48 97 be
       0.19115226 -0.08757872 -0.3009386 -0.2954752
000100 00 53 a7 bd d8 1e a0 3d 80 ed 50 3e fa c4 36 3e
       -0.08170128 0.07818383 0.20403099 0.17848578
000110 73 f3 a0 3e 92 20 51 3e 91 4e c5 3e 8e b2 b1 be
       0.31435737 0.20422581 0.38536504 -0.3470654
000120 d9 a3 98 be 3a 6b 07 3e df 09 dd 3c 67 e5 2d 3e
       -0.29812506 0.13224497 0.026982246 0.16982041
000130 62 5c 40 3d 97 a4 0b 3e ea 49 64 be 12 e8 34 be
       0.046963103 0.13637005 -0.22293821 -0.17666653
000140 d8 08 b0 be 5f f2 be 3e e5 50 9c 3d 93 59 0c be
       -0.34381747 0.3729429 0.07632617 -0.13706045
000150 e1 e5 c5 3d 75 0e c0 bd 77 05 d8 3d 1a d5 6c be
       0.096629865 -0.093777575 0.10547917 -0.23128167
000160 89 f4 9c bd 78 af 94 3e e5 10 8b bd f0 c8 22 be
       -0.07663829 0.29040122 -0.06790332 -0.15896964
000170 be f7 58 be 65 71 8c bd fc cc c9 3e f4 da 8d bd
       -0.21188256 -0.06857566 0.39414203 -0.069265276
000180 63 2d 95 3e 2a f0 b9 bd 06 6e 42 be 27 38 9f bc
       0.2913619 -0.09079011 -0.18987283 -0.019435955
000190 d3 cf 50 be de 9f 79 3e 7f 16 27 3d 1e de 02 be
       -0.20391779 0.2437739 0.04079294 -0.12780043
0001a0 54 76 61 3e ba 5d 67 be 1b ef cb 3d 42 4d 4c be
       0.22017795 -0.22594348 0.09957715 -0.19951347
0001b0 f2 8a 03 be 48 35 90 3d 0a 39 55 3e c2 85 a2 3d
       -0.12845972 0.070414126 0.2082254 0.079356685
0001c0 41 8d a6 3e d4 c7 36 be 2d f4 9b be 23 34 62 be
       0.32529643 -0.17849666 -0.3045973 -0.22090201
0001d0 12 92 92 3d 06 46 92 be a9 31 3b be 7f 7b 4e 3e
       0.07156767 -0.2856905 -0.18280663 0.20164298
0001e0 82 05 7a be a0 1c 58 be 63 ab 8f 3e 26 28 3b 3e
       -0.24416164 -0.2110467 0.28060445 0.18277034
0001f0 fe 4c c4 bd 4d e6 ae 3d e8 a4 c1 3b ba a3 4a be
       -0.095849976 0.0854002 0.005909551 -0.19789019
000200 80 9c 7a 3e 51 f2 a3 3c 63 f3 83 be ce 69 09 3e
       0.24473763 0.020013006 -0.25771627 0.13419268
000210 03 71 12 3e 6c c2 4e 3c 5e 90 52 be b0 a2 25 3e
       0.14300923 0.012619596 -0.20562884 0.16175342
000220 85 a5 a7 be 15 a3 ef bd 36 f3 f0 3a 08 5f ad 3e
       -0.3274347 -0.11701027 0.0018383029 0.33861566
000230 97 6c 77 3e 1d 87 3c be 89 b4 aa 3e 60 cc 1e 3e
       0.24162517 -0.18410917 0.33340862 0.1550765
000240 85 8d fe bd d5 81 03 3e 01 4e ce bd 04 18 07 be
       -0.124293365 0.12842496 -0.10073472 -0.13192755
000250 52 4e 7c 3e 8f a3 8b 3e 13 da 97 3e 01 e3 21 3e
       0.24639252 0.27273223 0.29658565 0.15809251
000260 ec 5e 3e 3d b2 88 d3 3d cd 1b 0a be e0 f8 a2 be
       0.046477243 0.10328807 -0.13487168 -0.31830502
000270 e6 d7 02 3e cf d4 ae bd 2d 93 0b 3e c1 ae 90 3e
       0.12777671 -0.08536684 0.13630362 0.28258327
000280 af e3 c1 3d 23 e7 ce be 4e 76 77 3e 11 34 f6 3d
       0.09467255 -0.40410718 0.24166223 0.1202165
000290 c7 1c f3 3d e4 9b 4c be 8a 01 f4 bd 6f 8a 4d 3e
       0.11870723 -0.19981343 -0.11914356 0.2007234
0002a0 73 97 68 3e 8f 0d 09 3f d6 ad 07 3e 84 b0 dc be
       0.22714023 0.53536314 0.13249907 -0.4310342
0002b0 80 96 d2 bd 18 2f 77 3e 1e 1a b1 be 2e 27 b1 be
       -0.10282612 0.24139059 -0.34590238 -0.34600204
0002c0 ea d0 72 3e 96 9a 66 be 91 7e 88 bd 2d 95 1a 3d
       0.23712507 -0.22519907 -0.066647656 0.03773992
0002d0 cf 5c 35 3d 40 45 fb 3d bb e6 b0 3e 1c ed 93 be
       0.044277962 0.12269068 0.34551033 -0.28891838
0002e0 a3 4a 8f be 39 13 b3 3c 2a 2c 5d 3e 17 e9 bf 3c
       -0.2798663 0.021859752 0.21598879 0.023426576
0002f0 35 6f 8c bd 05 4b aa be 48 29 57 be 7e 23 8b 3e
       -0.068571486 -0.3326036 -0.21011841 0.27175516

bias f4 [16]
000000 1f b2 39 be 61 83 cc 3e e4 a4 2c be ed c3 39 be
       -0.18134354 0.39943984 -0.16859776 -0.18141146
000010 e9 17 bf 3d b9 34 cf bd 01 9a a6 bd cf fc 21 be
       0.093307324 -0.10117478 -0.08134843 -0.15819095
000020 24 f4 47 3e 03 85 90 3e fe 6f bc bd 2b de 42 bd
       0.19526726 0.2822648 -0.09201048 -0.047575157
000030 15 50 73 3d 54 40 84 be bf c1 a1 3c e5 09 27 3e
       0.059402544 -0.25830328 0.019745706 0.16312368

weight f4 [16, 16, 2, 2]
000000 1c a1 d6 bd 66 a7 67 3d 89 ac 6b 3d 0f 04 84 bd
       -0.10479948 0.056556128 0.05753759 -0.064460866
000010 d1 9c 91 3d 70 8e 7a be e0 0c 3e be 53 dd 4a 3d
       0.071099885 -0.24468398 -0.18559599 0.049527477
000020 a7 db 68 3e 96 43 4f 3e 64 e8 80 3d 6f 15 d6 3d
       0.2274004 0.20240626 0.06294325 0.10453307
000030 1e 5d a8 3d cb 32 a7 3d d3 29 5d 3d 5b f9 04 bd
       0.08220886 0.08163985 0.053994965 -0.032464366
000040 a5 e6 14 bd 16 0d 68 3d 6a ea 1a 3c 18 5b 04 ba
       -0.036352772 0.056653105 0.009455303 -0.00050489744
000050 5d ac 57 bd 96 8b b7 bd 85 58 bc 3b b6 a2 05 3d
       -0.052654613 -0.08962171 0.005747857 0.032625876
000060 ba 91 41 bd c7 eb 09 bd a0 c5 d8 3d 8e 41 d7 bc
       -0.047258116 -0.03367212 0.10584569 -0.026276376
000070 87 63 46 3d ba 79 cf ba 9a d1 b4 bd 3d 1b 15 bd
       0.04843476 -0.0015829124 -0.08829041 -0.03640293
000080 fd c4 fd bd ed b7 db bd 6d fd c1 bd 45 64 33 3d
       -0.12391088 -0.107284404 -0.09472165 0.043796796
000090 97 fc 0f be 0c dc be bc 8a aa 80 bd 9f c5 85 3d
       -0.14061199 -0.023298286 -0.06282528 0.06531834
0000a0 8b b9 57 3d 9a 92 15 3d 5c 80 d8 bd 21 f6 dd bd
       0.052667182 0.036516763 -0.105713576 -0.10837961
0000b0 07 85 ef bb 2e af 44 3d 65 b7 ae bc b9 0e 86 bd
       -0.0073095593 0.048018627 -0.021327684 -0.06545777
0000c0 08 d3 b1 3d 38 fb 86 3d b5 01 b7 3c 22 d9 32 3e
       0.08682829 0.06590885 0.022339681 0.17465642
0000d0 53 89 ca 3d 88 24 0b 3d 6a b2 1d be d6 f1 80 3c
       0.09889474 0.033970386 -0.15400091 0.015740316
0000e0 a4 a6 6c be 50 ae a5 bd e9 c8 46 3e db fc 09 3e
       -0.23110443 -0.08089888 0.19412579 0.13475363
0000f0 15 d1 51 be a8 d9 00 3e f5 a9 23 3c 36 5e 22 3d
       -0.20489915 0.1258303 0.009989251 0.039640628
000100 3a f9 f1 3d d2 97 8d bd 06 13 97 3d 97 b0 17 be
       0.11815114 -0.06913723 0.07376675 -0.14813457
000110 b6 17 6e bd 66 ac be bc 7a eb 18 be 5d 84 46 bd
       -0.05812808 -0.023275565 -0.14933577 -0.048466075
000120 2e 6c 31 bc 2b 95 d4 bd c1 eb d5 bd 5a 61 e0 3d
       -0.010829015 -0.10380014 -0.10445357 0.10956068
000130 76 f0 d5 3c d9 b9 2d 3b 1c 13 84 bb 68 22 e1 3d
       0.026115637 0.002650848 -0.0040305983 0.109928906
000140 fe c5 d4 bc 3d 31 21 3e be d3 94 3d 8a e4 81 bd
       -0.025973316 0.15741439 0.07266949 -0.063424185
000150 f3 4b 17 3e c9 67 62 3a 79 bf c1 3d 0d 5c 51 3d
       0.14775066 0.0008636681 0.09460349 0.051113177
000160 6a 59 66 3d bf 9b 17 bd b1 cf 88 bd f3 d7 90 3c
       0.056237616 -0.037013765 -0.06680239 0.017681098
000170 c0 9c e2 3d 01 37 7a bd b5 b7 74 bd 0c 49 87 bd
       0.11065054 -0.061087612 -0.05974551 -0.066057295
000180 d6 0d e0 bd 19 22 2f 3e 01 cd ca bd 4a 17 b5 bc
       -0.10940139 0.17102851 -0.09902383 -0.022105832
000190 29 3d d6 bd cd 46 0d bd cd a6 48 be 03 0c 03 3e
       -0.10460884 -0.03449135 -0.1959488 0.12797551
0001a0 90 c0 1a bd 75 fd 33 3d 6a 96 2f bd 3b 61 da 3d
       -0.0377813 0.043942887 -0.042868055 0.106630765
0001b0 c7 84 a3 3d 2c e1 b7 3d 53 24 81 bb ac 81 02 b9
       0.0798431 0.08978495 -0.0039410978 -0.00012446073
0001c0 6e 17 68 bc de 73 f8 bb 3a fe 0d 3e d0 d7 4f 3d
       -0.014165742 -0.007582172 0.13866511 0.050742924
0001d0 31 3c 53 bc 6e b6 6f bd 7c 11 86 3d c6 3e 30 3e
       -0.012892769 -0.058523588 0.06546304 0.17211446
0001e0 e8 1d 37 bb 84 e0 4c 3d e2 e3 7b bb e0 a2 94 3d
       -0.002794141 0.050018802 -0.003843539 0.072576284
0001f0 d7 c4 f2 bd 84 78 bb bd bc 4b 13 be db c8 b1 3d
       -0.118539505 -0.09153846 -0.14384359 0.08680888
000200 4b 17 1a bc f8 e1 08 3e 33 20 f6 bd a0 bc 38 bd
       -0.009404968 0.1336745 -0.1201786 -0.04510176
000210 e0 31 56 3e 64 de 09 be 8d c7 e7 bb 0a ec 3e 3e
       0.20917463 -0.13463742 -0.007073349 0.1864473
000220 bb 94 ec 3d ef fb cf 3d 8f f7 a2 bd 49 ad 0e 3e
       0.115518056 0.101554744 -0.07957374 0.1393329
000230 6e 15 16 3c b2 80 be bd 9e 8b a9 bd 87 50 c4 3d
       0.009160383 -0.093018904 -0.08278583 0.09585672
000240 6a c1 92 3d 8d 42 c6 3d 3d 52 84 bc d8 05 2c be
       0.07165797 0.09680662 -0.016152496 -0.16799104
000250 e3 3e 83 3d ac b5 a5 bd 34 af 53 3d 37 f2 11 3e
       0.06408479 -0.08091292 0.05168076 0.14252554
000260 8f e1 fa bc 54 6f 60 bc 06 a8 5a 3d 97 aa 02 bc
       -0.030625133 -0.013698418 0.053382896 -0.007975242
000270 ad 5a 43 be 08 39 d1 bd ec 99 8b 3d b3 85 3f 3e
       -0.19077559 -0.10215956 0.06816468 0.18703346
000280 96 45 32 3d b1 fc 5c bd 58 c5 c3 3d d4 5d 50 3d
       0.043523394 -0.053951923 0.09559125 0.05087073
000290 ca ff 90 bc 62 d0 60 bd 02 a3 f9 bc 84 ca d4 bc
       -0.017700095 -0.05488623 -0.030473236 -0.025975473
0002a0 52 b8 35 3c c0 ea 9d 3d a9 55 57 be 2c 67 8d be
       0.011091309 0.07710791 -0.2102877 -0.27617776
0002b0 48 41 d9 3d fa bd 92 3c 03 14 b1 bd 7e ee b7 3c
       0.106081545 0.017912854 -0.08646395 0.02245259
0002c0 76 4a ce 3d 49 de 59 3e cc 47 71 3e 3a 96 fe 3d
       0.10072796 0.21276201 0.23562545 0.12430997
0002d0 96 3b 34 3e b1 e5 29 3d 25 c3 29 be 02 89 07 be
       0.17600855 0.041478816 -0.16578348 -0.13235858
0002e0 3d c8 ac be a3 98 00 be 96 b2 2a 3e 01 ca ed 3d
       -0.3374652 -0.12558226 0.16669688 0.11610795
0002f0 e8 78 ff bd f3 6f f3 3d 21 d7 a4 3c 79 25 9d 3d
       -0.12474233 0.11886587 0.020122113 0.07673163
000300 0f 03 cb bd 17 e2 1c 3d 86 0e 11 3d dd 80 3e 3d
       -0.09912693 0.038301554 0.03541424 0.046509612
000310 38 90 3a bd 45 59 d5 bd db 57 44 3d 37 1e 4a 3d
       -0.045547694 -0.104174174 0.047935348 0.04934522
000320 70 fa 64 3b 51 9d e7 bd f5 09 dd 3b ee 80 9c 3d
       0.0034939311 -0.113093026 0.0067455717 0.07641779
000330 c2 47 37 3d f9 44 ad bd 48 5c b4 3c 3b a6 d9 bd
       0.044746168 -0.08460421 0.02201666 -0.10627409
000340 96 51 25 bc fb 20 93 bd 7a 63 ab 3c 9c d6 40 bd
       -0.010090252 -0.07184025 0.020921458 -0.047079667
000350 a3 7c a1 3c 52 cb bc 3d 49 4d 05 3d 9c 24 48 bd
       0.019712752 0.09218468 0.032544408 -0.04886304
000360 6e c9 a4 bb 99 a9 5a bd 62 61 4f 3d 51 3a 79 3d
       -0.005028895 -0.053384397 0.05062998 0.06084663
000370 8e 3d bc bd 35 f0 a7 bd 9d 47 97 bd 58 da 06 3c
       -0.09191428 -0.08200113 -0.07386706 0.008230768
000380 7f 9a ad bd 3e 88 85 bb 5b c2 ec 3c a0 16 ae bd
       -0.084767334 -0.004075079 0.02890127 -0.08500409
000390 ae 07 f0 bd 86 34 a6 3d 17 11 06 be 45 46 38 3d
       -0.11720215 0.08115487 -0.13092457 0.04498889
0003a0 5e c8 16 be 6c dc 77 3d 34 5e 53 3d ce f8 85 3d
       -0.14724872 0.060512945 0.05160351 0.06541596
0003b0 10 ff 2d 3e c4 48 d6 3d 91 b4 4d 3d 14 64 a8 3d
       0.1699183 0.10463098 0.05022103 0.082222134
0003c0 aa d9 a2 3d 5b 62 4e bd c6 03 23 3e 15 65 91 bd
       0.079516724 -0.050386768 0.15919408 -0.07099358
0003d0 e0 d4 ea 3b 65 bb 4f 3d 8b 3d f5 bd d9 21 7d bc
       0.00716649 0.050715823 -0.11974629 -0.015449964
0003e0 94 cf 8f 3d b9 5a 14 be bc 5d 10 bb 4c 8e 91 bd
       0.07022014 -0.14487733 -0.0022028526 -0.07107219
0003f0 ac c1 50 3c 16 26 b2 bd e6 c4 d0 bd 3f 49 60 3d
       0.0127414875 -0.086986706 -0.101938054 0.054757353

bias f4 [16]
000000 76 44 64 be c2 ae 00 be 33 e1 8c 3d 7c fe 12 3d
       -0.22291741 -0.12566665 0.06878891 0.035887226
000010 93 36 35 bd a9 c6 52 be e2 b4 db 3d ce df 84 3c
       -0.0442415 -0.20583595 0.1072786 0.01622
000020 99 29 14 3e 7f 26 92 bd 3a 5d 32 3e 52 a9 53 3b
       0.14468993 -0.07136249 0.17418376 0.0032296968
000030 58 67 4d be 0d 86 eb bd 47 9c 2f 3d 0d 20 83 3d
       -0.20058954 -0.115001775 0.042873647 0.064025976

weight f4 [16, 16, 2, 2]
000000 94 51 6b bd 4d 53 6a 3d dd 94 de bc 46 a0 91 bd
       -0.057450846 0.057208348 -0.027170593 -0.07110648
000010 65 b1 18 be 37 50 8e bd 60 1e 63 3d 45 d1 95 3d
       -0.1491142 -0.069488935 0.05544889 0.073153056
000020 d5 32 50 bc 7d 73 63 3d ec ca 2f 3b 80 6a ed ba
       -0.012707432 0.05553006 0.0026823832 -0.0018113405
000030 28 1b aa b9 e2 ea d7 3d ac 50 e3 bd aa b6 cf 3d
       -0.0003244516 0.10542847 -0.11099371 0.10142262
000040 f5 ec 06 be f8 01 5e bd e7 c4 9f 3d 7f d5 ab 3d
       -0.1317633 -0.054201096 0.07801228 0.083903305
000050 8d 5d 81 3d 2a 9c e7 bd 50 61 1b be d4 4b ee bd
       0.063166715 -0.11309083 -0.1517384 -0.11635557
000060 da 2c 9f bd e5 24 82 bb 54 11 cf bd 22 ed 2f 3d
       -0.07772227 -0.0039716833 -0.10110727 0.042950757
000070 51 96 9d bd fd 63 5b bd 15 46 33 3c 4a f4 e4 bd
       -0.07694686 -0.053562153 0.010942002 -0.11179407
000080 ca e1 b0 bd c0 25 1a be bd 5c 5c 3d 87 fa 9f 3c
       -0.08636816 -0.15053463 0.05379938 0.01952864
000090 b3 7e e5 3d f9 b3 77 3d a8 e6 4e bd 53 8c cf bc
       0.112058066 0.06047437 -0.05051294 -0.025335466
0000a0 46 af f3 3c 90 58 26 3e bf ca 1c 3e 36 e3 10 3e
       0.029746663 0.16244721 0.15311716 0.14149174
0000b0 59 23 5f bc 9a aa a4 3c 3b 7f c1 3d 3b 98 00 be
       -0.013619267 0.02010088 0.094480954 -0.12558071
0000c0 b8 aa 43 3d be 1e 6a 3d de 74 d5 3d 32 da 1a 3c
       0.047770232 0.057158224 0.10422681 0.009451436
0000d0 52 09 29 3d b3 60 16 be b8 ee 72 bc 88 f1 b5 bd
       0.041268654 -0.14685325 -0.014827423 -0.08883959
0000e0 35 54 95 3d 14 90 dc 3d 23 5f bf 3d de d3 0a be
       0.07291452 0.10769668 0.09344318 -0.13557383
0000f0 27 bf f6 3d 78 1e fb 3d 5e ed a0 b7 7c ec c4 bd
       0.12048178 0.12261671 -1.9184019e-05 -0.09615418
000100 ad 50 19 3d 40 e6 bf 3d a6 7b bd bd 91 52 ca 3c
       0.037430454 0.093700886 -0.092521 0.024697574
000110 1f 2b 9b 3c cd a7 d7 bd 32 11 12 bd 96 43 9a bc
       0.01894146 -0.10530052 -0.03566093 -0.018831056
000120 02 40 93 3c 68 55 68 bc 09 11 fb 3d d9 37 ad bd
       0.017974857 -0.014180519 0.122591086 -0.08457918
000130 2c 28 fe 3d 7b 1b 11 3e cb ab 15 3d 34 9c 13 3e
       0.12410006 0.14170639 0.036540788 0.14415056
000140 21 ac 9d 3d 5a 6c 93 3c cc 39 47 bc e4 41 a2 3d
       0.076988466 0.017996002 -0.012159776 0.07922724
000150 9e 84 c2 bd 23 9e 0a bd 1f f8 88 bd c5 e1 b9 bd
       -0.09497951 -0.033842217 -0.0668795 -0.09076265
000160 2d 6b 13 be e2 5f f8 bd ad 2a 8e 3d 58 86 7e bd
       -0.14396353 -0.12127663 0.069417335 -0.06213984
000170 5d 0d 92 3c 36 ae 3d bd 43 2d a9 bc 4c 1a 98 3d
       0.017828638 -0.04630872 -0.020651465 0.07426891
000180 0e 86 e8 bd 94 d3 9f bd bd 05 70 3d ae 99 19 be
       -0.11353694 -0.07804027 0.058599222 -0.1500003
000190 56 3e 4b 3d 81 8f 51 bd 83 cf bd 3d 7e c4 da 3c
       0.049619995 -0.051162247 0.09268095 0.026705023
0001a0 e4 c4 dd 3d 25 84 dd 3d 23 7f c9 3d 2f 12 e2 3d
       0.108285695 0.1081622 0.098387025 0.110386245
0001b0 97 95 03 3d 15 6e 15 3b c4 24 78 bd f3 c8 7e bd
       0.032125082 0.002280121 -0.060581937 -0.06220336
0001c0 d1 88 63 bc 57 b2 9f 3d a1 6b c3 3d 59 3b fb bd
       -0.0138876 0.077976875 0.09542013 -0.12267179
0001d0 b4 30 84 bd dd ae 9d 3c 3c fa fd bd 57 20 17 3c
       -0.06454602 0.01924842 -0.12401244 0.009224019
0001e0 00 af a5 bd 9d da f2 bd 02 a2 0f 3b 35 83 80 bc
       -0.08090019 -0.118581034 0.0021916633 -0.015687564
0001f0 79 79 54 bb 2c 0f 9b 3d e0 5d 05 3e 06 46 c2 bd
       -0.0032421036 0.07571253 0.13024092 -0.09486012
000200 de 93 d6 bd d1 7c a1 bb 59 42 42 bd 75 d1 ca bd
       -0.10477422 -0.0049282094 -0.047426555 -0.09903232
000210 54 d1 88 bd fd 0b 1a bd 21 a0 ce 3d 6e 64 ab 3c
       -0.06680551 -0.03760909 0.10089136 0.020921912
000220 5d d0 a4 bd 35 e2 c7 bd 45 1d fb bd 45 7f eb bd
       -0.08047555 -0.097599424 -0.12261442 -0.11498884
000230 2c de b2 3d 84 4a 87 3d 69 e0 47 bc 53 a3 17 3d
       0.08733782 0.066060096 -0.0121995 0.037020992
000240 6c 94 64 3d c0 cc d4 3d 3f 4d 36 3c a8 83 a1 3d
       0.05580561 0.103906155 0.011126815 0.078864396
000250 1e a1 e4 3d e1 92 12 3c c9 e1 a6 bd 6a 21 3a 3d
       0.11163543 0.0089461515 -0.08148534 0.045442022
000260 2a ea 8c 3d 13 82 d8 bd 28 e6 08 3d d2 4b f2 bd
       0.06880601 -0.10571685 0.03342262 -0.11830868
000270 3d 7a 18 bd 8b 4a 77 bd a9 d4 14 3e e2 e6 1f bd
       -0.03722595 -0.060373824 0.14534248 -0.039038546
000280 57 78 d0 3c 23 a2 fe bd d7 78 a9 bd 2e b7 d0 bd
       0.025448008 -0.12433269 -0.082750015 -0.10191189
000290 af b5 ac 3d 44 7c b7 3d 3a 97 90 3d c0 5f dd bd
       0.08433091 0.08959249 0.07060094 -0.108092785
0002a0 05 50 fa 3d 40 80 51 bd bd 5f ac bd f2 50 fc bb
       0.12222294 -0.0511477 -0.08416698 -0.007700079
0002b0 d9 dc e9 bc bf 44 10 3d b0 81 bc 3d 1f 6a ef 3d
       -0.028547691 0.03522181 0.092044234 0.11690163
0002c0 66 2b ac bc a6 75 21 be 21 a1 0b 3d 57 86 00 be
       -0.021016788 -0.15767536 0.03408921 -0.12551247
0002d0 1e 0c 15 bd b3 dd 46 bd 77 d4 61 3d 6c c8 40 bd
       -0.03638851 -0.048551273 0.055134263 -0.047066137
0002e0 7e c0 f7 bc 25 c4 2c bd 8d ab 82 bd 4f 9c cc 3d
       -0.030243155 -0.042179246 -0.06380377 0.09990751
0002f0 5e b3 2e bd 8a 3e 8c bd 8e 78 e3 bd 60 8c 09 3d
       -0.042651527 -0.06847866 -0.11106978 0.033581138
000300 0a 42 be bc ca c9 77 3d b1 9a 22 3d 3e 7c 8b bd
       -0.02322485 0.060495175 0.039698306 -0.06810807
000310 90 2b 1b 3e 75 7a 26 3d 5c 8d fd 3d 0f 21 1d 3d
       0.15153337 0.040644128 0.12380478 0.038361605
000320 66 5b 68 bb ef 47 ae bd ec 16 fa 3c f6 48 0f bd
       -0.0035454868 -0.08509814 0.030528508 -0.03498169
000330 02 1b aa bd 56 de 8c bc 00 0b cd 3c 27 c0 10 3e
       -0.083059326 -0.017195862 0.02502966 0.141358
000340 0e 4c f2 3d 1f 5b dd 3d 56 fe 4c 3d f4 b0 8a bd
       0.118309125 0.108083956 0.05004724 -0.067720324
000350 6c 5d 05 3d a3 27 a0 bd fc 47 18 3e 3c 6c 12 3e
       0.032559797 -0.0782006 0.1487121 0.142991
000360 ad cc ed 3d 8c 6f d5 3d c6 5b 93 3d 07 87 d7 3c
       0.116113044 0.104216665 0.07195239 0.026309503
000370 bb 87 db 3d 2b 87 12 3e ff 87 56 3c 70 fb e5 3d
       0.10719248 0.14309375 0.013093947 0.112295985
000380 9e 10 5e 3d 48 be a2 3d f4 d5 43 bd e5 d1 a7 3c
       0.054215066 0.079464495 -0.047811463 0.020485828
000390 25 47 02 be 76 03 ac bd 96 18 9f 3d e0 60 8c 3d
       -0.12722452 -0.083990976 0.07768361 0.06854415
0003a0 7c cf 5d bd 03 c7 c5 bd 1d 94 21 bd fe e2 7d 3d
       -0.05415295 -0.09657099 -0.039447892 0.061984055
0003b0 3b 99 a5 bd 89 59 21 3e ae 23 49 3d c8 76 ff 3d
       -0.08085867 0.15756811 0.049106292 0.124738276
0003c0 12 28 e4 bd 2f ef c2 bd 2c f0 d8 3b 97 6d 06 be
       -0.11140455 -0.09518277 0.0066204276 -0.13127743
0003d0 68 1d 35 3d 0f 8c 1f 3e 37 92 b3 3d 5f 41 49 3e
       0.044217497 0.15580772 0.08768123 0.19653843
0003e0 b2 31 12 3d 1f 63 01 3e ca 3f ed 3d f0 ef d8 bd
       0.035691924 0.12635468 0.115844324 -0.105926394
0003f0 cc 2d 3b 3d 32 c4 c3 3d 05 32 5c 3d 9a 29 dc b9
       0.045697972 0.09558906 0.05375864 -0.00041992666

bias f4 [16]
000000 58 9f b5 3c d0 a4 b9 3d 08 11 96 3d 95 ce c0 bc
       0.022170708 0.090646386 0.07327467 -0.023536006
000010 9d 7b 0a bd 8c 59 78 bd 10 fa af bd ae ce 45 bd
       -0.033809293 -0.060632274 -0.085926175 -0.04829281
000020 b0 e5 00 3d 68 c0 a9 3b 89 7e 78 3e fb 6d 20 be
       0.031469047 0.0051804073 0.2426702 -0.15666954
000030 a4 e8 05 3e a1 4c f6 bc fc e3 26 3d 2d 92 f1 bd
       0.13077027 -0.030065836 0.040744767 -0.11795459

weight f4 [16, 16, 2, 2]
000000 eb b9 f1 3b 94 9e c9 bd e1 63 f6 3c df ff e7 3d
       0.0073768995 -0.098446995 0.030076923 0.113281004
000010 79 e3 6e 3d fe fd 8a bd f1 c2 0f 3e 60 57 e8 3d
       0.058322404 -0.067867264 0.14039208 0.113447905
000020 0e c9 1d bd 6a 3c df 3b 81 d5 83 bd c2 af 54 bd
       -0.03852182 0.006812622 -0.06437207 -0.05192543
000030 92 2a a7 bc 07 cb de bc 1a 18 d2 3d 87 45 58 bd
       -0.020406041 -0.02719642 0.10258503 -0.05280068
000040 a7 ff a8 3d 2f 50 f9 bd 6c 6f f4 39 9f c8 65 bd
       0.08251887 -0.12173497 0.00046622322 -0.05609953
000050 c6 7a 38 bd 92 86 f7 bd d1 9b fe bb f0 bf 70 bd
       -0.04503896 -0.12086214 -0.0077700396 -0.058776796
000060 01 53 c4 ba 7e 51 bd 3d ab 3d 8f 3d 55 9e d6 bd
       -0.001497835 0.09244059 0.06994184 -0.10479418
000070 27 c1 f2 bd 6b 5a 8a bd 5c 4f 8f bd e9 3b 13 3d
       -0.11853247 -0.06755527 -0.069975585 0.035945807
000080 1b 3b 98 bd 7d 38 79 3d 22 a9 c1 bd b0 64 22 be
       -0.074331485 0.060844887 -0.09456088 -0.15858722
000090 37 81 e8 3d 27 e8 3f bd a0 4b a3 3d 94 09 7e bd
       0.11352771 -0.046852257 0.07973409 -0.062020853
0000a0 08 ef 06 3e 5d 7d 66 3e f7 6c 66 3e 1a 05 75 3e
       0.1317712 0.2250876 0.22502504 0.23927727
0000b0 62 25 c6 bd 4d 83 8e 3d 1b 1b 45 3d 44 a4 01 3d
       -0.09675099 0.069586374 0.048121553 0.031650797
0000c0 e4 cd 8e bd 30 1b 78 3d 65 20 75 3d 1e 44 ba 3d
       -0.06972864 0.060572803 0.059845347 0.090950236
0000d0 a0 0d 79 3d 26 21 59 bd e7 ff d6 3d a8 59 21 3c
       0.06080401 -0.05301013 0.10498028 0.009848036
0000e0 de 1c 55 3c f0 c6 15 3c 09 48 13 bd 95 fb 53 bd
       0.013007371 0.009141669 -0.03595737 -0.0517536
0000f0 df 76 c0 bd 86 55 c8 bd 77 fe 6c bd a7 d9 f2 bd
       -0.09397673 -0.09781937 -0.057859864 -0.1185792
000100 a1 45 bb bd 25 f6 28 bd 94 94 e0 bc c1 e5 a2 3c
       -0.0914414 -0.041250367 -0.027414598 0.019884946
000110 29 2e 74 bc 13 29 7d bd 30 ed 98 bd ae 2a f2 3d
       -0.014903584 -0.06180675 -0.07467115 0.11824547
000120 65 da ba bd 77 7e 01 3c 22 d5 95 3c 62 47 cf 3d
       -0.09123687 0.007903687 0.018290106 0.10121037
000130 1c 0a 84 3d 99 60 c4 3d dd 08 a4 3d df f6 45 bd
       0.06447241 0.09588737 0.08009503 -0.048331138
000140 22 c0 07 3e e5 7e f1 3d b9 83 22 3e aa 10 1f bd
       0.13256887 0.11791781 0.1587056 -0.03883425
000150 03 65 f3 bd 22 a7 c8 3d 35 98 8a 3c 74 9b 63 bd
       -0.11884501 0.09797503 0.016918281 -0.055568174
000160 a4 1c 82 3d d2 1d ae 3d 10 4a 3d 3d 28 c8 1e bd
       0.06353119 0.085017815 0.04621321 -0.038765103
000170 f1 76 f5 3d e0 f7 f4 bc 87 33 49 3c 44 f9 ff 3d
       0.11985577 -0.029903352 0.0122803515 0.124987155
000180 79 b2 be 3d 92 f9 ec bd a2 c1 9d b9 e7 fa bb 3d
       0.09311385 -0.11571039 -0.0003008964 0.09178715
000190 5e 3a 1d 3d 3e 02 1c be 6e 1a c4 bd 31 c4 d5 bc
       0.03838574 -0.1523523 -0.095753536 -0.026094528
0001a0 44 cb 94 bc 08 be af 3d 1e f4 0a be 62 d6 22 3c
       -0.01816333 0.085811675 -0.13569686 0.009938808
0001b0 03 96 ce 3d 8c 28 b3 bd 7a 77 0d be 6e 9f b7 3d
       0.10087206 -0.08747968 -0.13815108 0.08965956
0001c0 69 7d ee bd 49 1e ae bd 14 0f e6 3d 84 7a d9 3d
       -0.11645014 -0.0850187 0.11233345 0.10619071
0001d0 68 7f 01 3d 3b 8a ae bd 50 30 c2 bd 1d 02 08 bd
       0.031615645 -0.08522459 -0.09481871 -0.03320514
0001e0 1e 42 19 3e b4 b5 0f 3e bb d0 8b 3d 7b 08 e2 3d
       0.14966628 0.14034158 0.068269216 0.11036774
0001f0 39 b9 95 3d 05 7f 19 3d 54 c2 21 3d a3 b1 c6 bd
       0.07310719 0.03747465 0.039491966 -0.0970185
000200 e9 a1 90 bd 23 99 e6 3d 1b 22 ac 3d 9a 7a 74 bd
       -0.07062132 0.11259677 0.084049426 -0.059687234
000210 8d 0a b3 bd 78 c1 e8 3c 37 eb fb 3d 5b ed 2c bc
       -0.08742247 0.028412566 0.12300723 -0.010554637
000220 af ad 98 3b b3 17 a6 bc 38 e1 09 3d d9 32 89 bd
       0.0046593766 -0.020274973 0.03366205 -0.066991515
000230 53 dd 58 bc 7c d8 c9 3d 9e 22 8c bd fb e0 5d 3c
       -0.013236362 0.09855744 -0.0684254 0.013542409
000240 c8 36 c6 bc d2 80 b6 3c 19 83 e3 bd 58 9f 97 3d
       -0.024196044 0.022278223 -0.11108989 0.07403439
000250 ca ce 5a bd 51 dd fe bd 0f 17 5c 3d 1c c8 82 bd
       -0.053419866 -0.124445565 0.053732928 -0.06385824
000260 43 2d 8a 3d ba 02 d8 3c ce 87 a0 bd 9a c4 f2 bd
       0.06746914 0.026368488 -0.07838403 -0.11853905
000270 03 cd c9 bd 2e 51 6e 3c 1e eb 46 bd 61 d5 cb 3d
       -0.09853556 0.014545722 -0.04856407 0.09952808
000280 b6 2e 93 bc b7 4a 85 3b ee b5 a9 bd 41 bc 2e be
       -0.01796661 0.0040677446 -0.082866535 -0.17064
000290 09 0c 61 3d 5f a3 76 3d 88 fe d5 3d 37 57 04 bd
       0.05494312 0.060214397 0.104489386 -0.032309737
0002a0 00 93 2b 3e 8a 26 10 3e c4 11 f4 3c cc 8a 68 3e
       0.16755295 0.14077201 0.029793628 0.22709197
0002b0 64 c7 fe bd 50 56 89 bd 56 7f c3 3d d4 75 13 3e
       -0.124403745 -0.06705916 0.09545772 0.14400417
0002c0 51 ec dc 3d 2d c9 d9 3d 4d 7b bc 3d 14 da 8d bd
       0.10787261 0.10634074 0.09203205 -0.06926361
0002d0 43 c0 cc 3d 66 44 a4 3d b5 ff 86 bd 95 17 d0 3c
       0.099976085 0.080208585 -0.06591741 0.02540187
0002e0 07 5a 82 3c a2 32 0f 3d 2c 0e 0a bd a6 b2 f5 bd
       0.015912069 0.034960397 -0.03370492 -0.11996965
0002f0 d4 54 c8 bd 58 21 1a be 59 a1 08 be 47 72 25 be
       -0.09781805 -0.15051782 -0.13342799 -0.16156875
000300 4a 6a c9 3d f1 4c 4b bd 17 be 77 3c 9a 55 07 3e
       0.09834726 -0.049633924 0.015121005 0.13216248
000310 2a b0 60 3d 80 a9 ca 3d 61 86 bc 3d 82 d5 83 3d
       0.054855503 0.09895611 0.09205318 0.06437208
000320 35 5e b2 3d 0b b8 f7 bd a0 a0 e5 bd 80 ef ba bd
       0.08709375 -0.1209565 -0.112122774 -0.09127712
000330 9f 89 d3 3c fd 99 7d 3d c2 cd 44 3d 2f e5 5b bd
       0.025822459 0.061914433 0.04804779 -0.053685363
000340 5f 23 a3 3d 0c 9d 88 bd 4e 55 d1 3d 9f 4a 89 3c
       0.07965731 -0.06670579 0.10221349 0.016759215
000350 a2 d9 06 bd d2 9e fd bb 6d 53 7c bd 2b 78 eb bd
       -0.032922395 -0.00773988 -0.061603 -0.114975296
000360 d9 0c 15 3d 76 9d 2c bd ba cb 22 bd 13 8d be bc
       0.036389206 -0.042142354 -0.03974507 -0.023260629
000370 6b 24 e3 3c 4f dd 09 3d 9b 44 2c 3d 29 36 d6 bd
       0.027727326 0.033658322 0.042057615 -0.10459549
000380 54 0a 01 3a f6 9e 16 bd 3e 3c e7 3d fd fe 34 3d
       0.00049224985 -0.03677269 0.11290787 0.04418849
000390 3d a2 b5 3d e4 54 ba 3d 3c 02 aa bd ee 9d ed 3c
       0.08868835 0.09098223 -0.083012074 0.02900597
0003a0 7b d2 1b 3c 1b 76 f3 3d ef d3 0e 3e ef f6 3e 3e
       0.009510632 0.11887761 0.13948034 0.18648885
0003b0 2b ef e1 bc 9c 99 9e 3d c0 40 a8 bd 69 17 a6 bb
       -0.027579864 0.077441424 -0.08215475 -0.0050687087
0003c0 64 a2 e8 3d 3c 2e 4a bc bd fa 2b ba 93 38 0d 3d
       0.113590986 -0.012340125 -0.0006560495 0.03447778
0003d0 79 24 84 bd fd 7a be 3d 8f 8e 16 39 ee 5a 25 bd
       -0.06452269 0.09300802 0.00014358222 -0.04036992
0003e0 c8 1b 66 bc ed 50 a2 bd e2 85 85 bd a6 04 d7 bd
       -0.0140447095 -0.079255916 -0.06519677 -0.104989335
0003f0 67 1f ea 3c 1f 7a c6 3d 5a 27 ef bd ec e0 62 3c
       0.028579427 0.096912615 -0.116774276 0.013847571

bias f4 [16]
000000 60 10 4d 3e 11 40 ab bd e8 d5 1e 3e 8c da f2 3d
       0.20025778 -0.08361829 0.15511286 0.11858091
000010 52 7a ae bd c0 6c 89 bd 51 77 87 bc 99 a9 c4 3c
       -0.085194245 -0.067101955 -0.016536387 0.024006652
000020 c3 31 49 3d 7e 13 63 bd 32 d0 54 3e 0e 36 14 bc
       0.049119722 -0.05543851 0.20782545 -0.009046091
000030 17 07 59 3e d0 ba d8 3b cd bd fa 3c 79 d3 bf bd
       0.21194111 0.0066140667 0.030608082 -0.09366507

weight f4 [128, 576]
000000 da b4 a1 bc cd b3 00 bb 28 ed 8a bc a7 ef 18 bd
       -0.019739557 -0.001963842 -0.016958788 -0.037337925
000010 80 f7 08 bd 7d ff c4 3c 30 3b 25 bd 12 45 be bc
       -0.03343916 0.024047608 -0.04033965 -0.023226295
000020 22 0b 0e 3d 17 dd d0 bc a8 d9 12 bd e4 0a 20 3d
       0.034678586 -0.025496049 -0.035852104 0.039072886
000030 fd 77 0e 3c 82 f4 20 3d 83 3c 83 bb d6 bf e5 3c
       0.0086956 0.03929568 -0.0040050163 0.028045576
000040 6f a2 97 3c 92 46 b6 3b 5a d3 86 3b a3 0c a1 bc
       0.018510072 0.005562612 0.0041145505 -0.019659346
000050 b0 02 15 3d ba 70 27 bd dc 29 10 bd f8 f9 17 bd
       0.036379516 -0.04087899 -0.03519617 -0.037103623
000060 c9 c3 51 bc d1 a5 28 3b 0c c6 ac bc 7a 94 3f 3b
       -0.0128030265 0.00257336 -0.02109053 0.0029232786
000070 65 6b 4f bc 09 e3 ac ba 78 47 3e bd 78 fe 32 bd
       -0.012659882 -0.001319022 -0.046454877 -0.04369971
000080 ad 8a b1 3c 3d 2c ac 3c 34 7d 5c bc 7b 63 32 bd
       0.021672571 0.021017188 -0.013457585 -0.043551903
000090 15 66 02 bd e8 c4 29 3d 26 53 17 bd 98 be 95 bb
       -0.031835634 0.04144755 -0.03694453 -0.0045698397
0000a0 81 4e cd bc aa 01 29 3c 97 5f 5d bc 95 53 87 3c
       -0.025061848 0.010315338 -0.01351156 0.016519347
0000b0 53 67 93 bc ed 48 e6 bc 5d 6d e9 bc 84 fe 09 bd
       -0.017993605 -0.028110946 -0.028494531 -0.03368999
0000c0 54 50 e9 bc 3e 97 ff bc 28 f9 80 3c d9 66 e9 bc
       -0.028480686 -0.031200048 0.015743807 -0.028491424
0000d0 9e 88 47 b9 cb 09 63 3b 85 e7 87 bc 8d 39 03 3d
       -0.00019029013 0.0034643288 -0.01658989 0.032037307
0000e0 69 a7 74 3a 69 20 f3 bc 09 bf 8e ba dd 70 34 bb
       0.00093328074 -0.02967854 -0.0010890673 -0.0027533092
0000f0 06 a3 13 3d 65 2b 3e bc aa e5 ef ba 1a 7c 1f 3d
       0.036044143 -0.011607026 -0.0018302698 0.03893671
000100 87 bf 79 bc f2 de fd 3c 3c 37 06 bd b9 74 2e 3c
       -0.015243418 0.030990098 -0.03276752 0.010647946
000110 c6 e5 1c 3d d8 d6 c9 bc 56 c6 02 bd e5 ca 2d bd
       0.038305067 -0.024638578 -0.03192743 -0.042429823
000120 2f b2 ea 3a 08 5a d1 3c e9 da 17 3d a3 3e 00 bd
       0.0017905886 0.025555626 0.037074003 -0.031309735
000130 31 13 b5 bc fa 67 07 3d ea 7c 1b bd b2 1d 09 3d
       -0.022103878 0.033058144 -0.037960924 0.033475585
000140 a4 9b 2d bc 15 70 a2 bc 43 99 c5 bc 29 fa 40 3c
       -0.01059619 -0.019828836 -0.024120932 0.011778393
000150 eb bb 32 bb d0 55 f5 bb 55 58 d5 3b fb 90 d9 bc
       -0.0027272652 -0.0074870363 0.006510774 -0.02655839
000160 c1 97 03 bd d6 69 8c bb 0f 90 c4 bc 73 06 ab 3c
       -0.032127146 -0.0042850776 -0.023994474 0.020877099
000170 2f 2c fc bc 31 e7 02 bd 46 1a d4 3b 9d c8 e0 3c
       -0.030782787 -0.031958763 0.0064728586 0.02743941
000180 3c 33 af 3c e3 7a 9a bc db 73 0c 3d 38 8a 1a 3c
       0.021386735 -0.018857425 0.034290176 0.009432368
000190 f6 6e 5e bb e9 0c 31 3c 54 23 12 bd 80 41 93 3c
       -0.003394065 0.010806301 -0.035678223 0.017975569
0001a0 94 1b 8f bc 9b 60 0d 3b c7 7a e4 3c b6 e0 2a bd
       -0.017469205 0.0021572474 0.027890576 -0.041718207
0001b0 d7 f7 38 3c d0 b7 b1 3c da 68 5f 3c 51 5b 24 3d
       0.011289558 0.021694094 0.013635838 0.04012615
0001c0 44 28 37 3d d0 0f 0e 3d 77 05 22 3d 77 0a 38 bb
       0.044716135 0.03468305 0.039555993 -0.002808241
0001d0 83 57 11 3c 38 85 dc 3c 3f 7b 14 3d 5d 0f 1f 3d
       0.008870962 0.026918992 0.03625035 0.03883301
0001e0 3c 7d 0d bd 10 89 2c bc 7e 7d 08 bd ff fc 00 3c
       -0.03454326 -0.010530725 -0.033322804 0.007872819
0001f0 df 6a d8 bc 97 e9 f4 bc 7f bf 09 3d fc 1c da 3a
       -0.026418148 -0.02989654 0.03362989 0.0016640718
000200 cb 91 22 3d 8e 5c 2b 3d c9 80 54 bc a1 5a 20 bc
       0.03968982 0.041836314 -0.012970158 -0.009787233
000210 6e 88 21 bc 3c d1 a8 bb 10 da db bc 7f 6e 33 3c
       -0.0098591875 -0.005151896 -0.026837379 0.010951637
000220 5d c2 9d bb 33 b8 8f 3c 18 09 c5 3c 4a 3f 28 3c
       -0.0048144297 0.017543888 0.024052188 0.010268996
000230 35 9d 1e 3d ca 91 0e 3c 72 38 1f bc b4 1e c0 3b
       0.038724143 0.008701751 -0.009718047 0.005863035
000240 81 eb 7d bc ed d6 7e bc c2 cc c4 bc 87 d4 6b 3c
       -0.015498043 -0.015554172 -0.024023417 0.014393932
000250 73 29 74 bc 12 5f 10 3d be 24 15 3d 4b 9f 91 3b
       -0.01490246 0.035246916 0.036411993 0.004444038
000260 03 39 4d 3c 3d 87 f6 bc af 3e f5 3c 01 30 df 3c
       0.0125258 -0.030093784 0.029937116 0.02724457
000270 3f 53 5e 3b 49 38 10 bd ec a7 f5 3b 74 99 f3 3c
       0.003392413 -0.035209928 0.0074968245 0.029736258
000280 8b 1d 73 3b ba 30 94 3a 80 9d ab 3c 11 e1 b6 3c
       0.0037096466 0.0011306026 0.020949125 0.022324117
000290 35 2e 15 bb 90 c8 76 3c e1 48 01 bc fe 58 2d 3c
       -0.0022763137 0.015062466 -0.007890911 0.010580299
0002a0 b8 66 40 3c aa 7f c2 3c 35 7f 8b 3c b3 ce 15 bd
       0.01174324 0.023742516 0.01702843 -0.036574077
0002b0 37 04 e2 bc 33 d1 1e bd cc 6a c2 3c 2d 2c 1d 3c
       -0.0275899 -0.038773727 0.023732565 0.009593052
0002c0 99 0d 47 bb 8c df 16 3d 44 82 15 bd 53 28 8f bc
       -0.0030373095 0.036834285 -0.036501184 -0.017475283
0002d0 6f 58 a7 3c 6a e6 94 bc 7c 01 ab 3c 1a ab c2 3b
       0.02042791 -0.018176276 0.020874731 0.005940807
0002e0 f9 89 08 3c 30 07 44 bc 0c 00 d2 bb a9 05 25 3d
       0.0083336765 -0.011964604 -0.006408697 0.0402886
0002f0 74 31 c0 bc 69 6d 0f bd 50 e4 b3 3c d4 6c 03 3d
       -0.023461081 -0.03501645 0.021959454 0.03208621
000300 0d fe 54 3c c6 04 7f 3c 48 be b2 bc 2c 26 d6 bb
       0.013000024 0.015565103 -0.021819249 -0.006535312
000310 7a 03 dc 3c a2 9b 01 3d 29 74 2d 3d 13 44 93 3c
       0.026857127 0.031642564 0.042347107 0.017976796
000320 4c d4 d7 bc 05 a0 f7 3c d4 f4 05 3d 09 a7 5b 3b
       -0.026346348 0.03022767 0.03270419 0.0033516309
000330 d1 d0 b6 3c 49 c8 4b bc c7 85 1a bd 29 13 8a bc
       0.022316368 -0.012437888 -0.037725236 -0.01685484
000340 02 51 c6 bc ad 61 15 bd 57 1f ce 3c ba 57 8d 3c
       -0.02420855 -0.036470104 0.025161428 0.017253745
000350 67 8d 9a bc d7 fa 8a 3c 21 d1 27 bc 6f e0 ba 3a
       -0.018866254 0.016965313 -0.010242731 0.001425756
000360 33 bd 3b 3c ef e2 13 3d d8 d5 0c 3d 34 ba 10 bd
       0.011458683 0.036105093 0.034383625 -0.035333827
000370 5e 8b 1a bb 52 8c b0 bc 13 15 d2 3c 3c 45 e4 bc
       -0.0023581604 -0.021551285 0.025644815 -0.027865045
000380 6c 1a 63 bc 35 49 ea 3b a9 45 50 bc 86 ba d8 3c
       -0.01386128 0.0071498402 -0.012711921 0.026456129
000390 cd c4 17 3d 4f 31 d8 3c 63 68 84 3c 0f 65 0f bb
       0.03705292 0.0263907 0.016163057 -0.0021880304
0003a0 6f 66 22 bd ef 45 0a bd ad cd 26 bc a7 41 13 3d
       -0.03964847 -0.0337581 -0.010180873 0.035951283
0003b0 9a 36 97 3a 75 a5 13 3d dd 34 bc 3c 0b e4 13 bd
       0.0011536658 0.036046464 0.022974426 -0.03610615
0003c0 e0 8c 7d bc df 71 6c bc f6 a0 99 3c 70 ea 3d 3c
       -0.015475482 -0.014431446 0.01875351 0.011591539
0003d0 6b 6d aa bc 91 c1 27 bd 54 28 7a 3b a6 89 98 3c
       -0.020804128 -0.040956084 0.003817101 0.018620323
0003e0 6d 7b 05 bd 0e ca d8 3c aa 33 b4 3c e9 ce 11 3d
       -0.03258841 0.026463535 0.021997292 0.035597716
0003f0 96 74 3e 3c 22 5c fa bc d9 8f 1e 3d 0b 27 16 bd
       0.011624476 -0.03056151 0.038711403 -0.036658328

bias f4 [128]
000000 ae 35 48 3d 7f 53 ac bc 0b 9f 6e bc 07 70 dc 3c
       0.048879318 -0.021035908 -0.014564286 0.026908888
000010 b5 1f ef 3c 05 2d 9d bc 73 5f 53 3d 10 f9 88 3c
       0.029189924 -0.019186506 0.0516047 0.016720325
000020 41 17 a0 bc 93 6b 35 3d 36 76 fe b9 45 7a 9d 3b
       -0.019542338 0.044292044 -0.0004853473 0.0048058354
000030 19 e2 27 bd 2f 68 d0 bb 24 c4 97 bc 0f 43 29 bd
       -0.040987108 -0.006360076 -0.018526144 -0.041323718
000040 f5 a4 5a 3c 95 36 5c 3c 58 9d 94 bb bb 61 a6 3c
       0.013344993 0.013440748 -0.0045353584 0.020310273
000050 0a c8 c5 bb d0 89 c7 3c 0b 15 08 3d d3 22 29 bd
       -0.0060358094 0.024357706 0.033223193 -0.041292977
000060 87 1e b6 bc 86 73 c3 bc 1f b4 a7 3c d2 ef 67 bc
       -0.022231353 -0.023858797 0.02047163 -0.014156299
000070 63 8b 0b bd ae 1d b1 3c 34 51 d6 3c 1b cf ff bb
       -0.034068476 0.021620598 0.026161768 -0.0078066713
000080 e2 5b d3 bb 14 c0 0f 3d 01 b8 26 bd 78 3d 7a 3d
       -0.0064501623 0.03509529 -0.040702824 0.061093777
000090 85 7e 11 bd 23 53 85 bc ab 62 12 3d 42 4b 0a 3d
       -0.03552105 -0.016274994 0.03573863 0.033763178
0000a0 bb 89 60 bc 6a c6 f6 bc 40 dc dd 3c 61 ce 20 3d
       -0.0137047125 -0.030123908 0.027082562 0.03925932
0000b0 79 26 38 3d e3 16 18 3d f2 85 e2 3c fd b3 3a 3d
       0.044958565 0.0371312 0.02765176 0.045581806
0000c0 3c 6e 12 3d 75 88 9e bc 9c 0a 0e bd 0a 26 e0 bc
       0.03574966 -0.019352177 -0.034678087 -0.027361888
0000d0 83 ff 51 bc 85 c2 d9 bc d9 b2 4f 3d 77 81 10 3d
       -0.012817266 -0.026582012 0.05070767 0.035279717
0000e0 1a c0 a1 3c f0 68 c6 3b ff af f9 3a 8a 6b 04 bd
       0.019744921 0.00605499 0.0019049643 -0.03232912
0000f0 a8 05 3e 3c cc 1a d1 bb 84 88 89 ba ea 34 15 3d
       0.011598028 -0.0063813683 -0.0010492955 0.036427416
000100 fb f8 db bc 98 9b 47 3b 8d 43 19 3d 37 8d c6 3a
       -0.026852122 0.0030457731 0.037417937 0.0015148286
000110 fe b0 19 3d 80 a5 31 bc 09 11 90 3c f0 ee 55 3b
       0.03752231 -0.010842681 0.017586248 0.0032643639
000120 1e 23 08 bd 56 88 bf bc 51 33 3f 3c cf 9b 44 bc
       -0.033236615 -0.02338044 0.01166995 -0.012000038
000130 3b 54 c6 3c cc c5 c7 3c 04 89 6a bb fb 4f 39 3d
       0.024210086 0.02438631 -0.0035787234 0.04524229
000140 27 e9 21 3b e1 c9 6f 3d e3 a2 d9 bc 7a 7a 25 3d
       0.002470562 0.058542136 -0.026566928 0.040400006
000150 d0 85 2a bb 26 79 5c 3d 29 c9 1b 3d d5 f5 5d bc
       -0.00260197 0.053826474 0.03803364 -0.01354738
000160 16 65 74 3c e6 2b 57 bc 0e e8 22 3c a3 d7 45 3d
       0.014916679 -0.013133025 0.009943021 0.04830135
000170 63 01 d7 bb a1 51 24 bd 74 38 29 3d a8 cc 11 bd
       -0.0065614446 -0.04011691 0.041313604 -0.035595566
000180 3c bb b9 bb 90 49 37 3d b3 16 b1 bc cb 3b bc bc
       -0.005668072 0.04474789 -0.02161727 -0.02297773
000190 b4 4d eb 3c c7 ba 68 3d 60 5f cf 3c 73 3e dc bb
       0.028723575 0.05681875 0.025314033 -0.0067213117
0001a0 96 75 43 3d c2 c5 f2 3c bd 62 16 bd f1 16 2c 3d
       0.04771956 0.029635314 -0.036715258 0.042014066
0001b0 8f aa 1a bd 18 a3 56 bc 4e dc 18 3c 00 e1 10 3b
       -0.037760314 -0.013100408 0.0093298685 0.0022106767
0001c0 00 43 00 3d 05 7a 19 3c c5 2e 98 3c 4c 50 31 3c
       0.031313896 0.009367471 0.018576989 0.010822367
0001d0 ff 8c df 3c c1 b5 e1 3b b7 ee 07 bd b2 17 57 bc
       0.027288912 0.006888122 -0.03318664 -0.013128208
0001e0 75 91 e2 3c d2 3e 03 bd 45 be 4e 3d b4 67 0c bb
       0.02765725 -0.032042332 0.050474424 -0.0021424117
0001f0 3c 68 08 bd 73 ae bb bc 89 26 31 3d bc 2b 8b bc
       -0.03330253 -0.022910332 0.04324964 -0.016988628

weight f4 [128]
000000 05 b3 80 3f 93 26 80 3f 45 fe 7f 3f 28 eb 7f 3f
       1.0054632 1.0011772 0.9999736 0.99968195
000010 35 f7 80 3f de 44 80 3f 10 d7 80 3f a2 86 80 3f
       1.0075442 1.0021017 1.0065632 1.0041087
000020 be 2c 80 3f cc 79 80 3f f8 76 81 3f 71 44 80 3f
       1.0013654 1.003717 1.0114431 1.0020887
000030 2a f2 7f 3f fa 4f 80 3f 46 fb 7f 3f 9f 85 80 3f
       0.9997889 1.0024407 0.9999279 1.0040778
000040 76 6a 85 3f 83 fc 81 3f 04 c6 80 3f 85 fe 7f 3f
       1.0423114 1.0155185 1.006043 0.9999774
000050 50 fd 7f 3f e7 fd 7f 3f a5 d6 80 3f a1 0b 80 3f
       0.999959 0.999968 1.0065504 1.0003549
000060 e0 01 80 3f 29 04 80 3f 1d b7 81 3f 1d 68 80 3f
       1.0000572 1.000127 1.0134007 1.0031773
000070 15 04 80 3f bc 20 81 3f 3f b0 80 3f 72 09 80 3f
       1.0001246 1.0088115 1.0053786 1.0002882
000080 99 00 80 3f c0 d0 81 3f fe 7c 80 3f 86 8a 83 3f
       1.0000182 1.014183 1.0038145 1.0276649
000090 64 0c 80 3f f3 5c 80 3f d6 5a 80 3f e0 01 80 3f
       1.0003781 1.0028366 1.0027721 1.0000572
0000a0 c5 20 80 3f 35 2d 80 3f 81 31 80 3f 87 3a 80 3f
       1.001 1.0013796 1.0015107 1.0017861
0000b0 96 9f 80 3f 25 1a 80 3f 3b 36 80 3f 59 e2 80 3f
       1.0048702 1.0007979 1.001655 1.0069076
0000c0 ae 7a 81 3f 29 31 80 3f 00 00 80 3f f6 24 80 3f
       1.0115564 1.0015002 1.0 1.001128
0000d0 fc 09 85 3f b2 e4 80 3f 06 1f 80 3f 0d e5 81 3f
       1.0393672 1.0069792 1.0009468 1.0148026
0000e0 de 3c 80 3f 2c 00 80 3f 50 ff 7f 3f a5 92 80 3f
       1.0018575 1.0000052 0.9999895 1.0044752
0000f0 09 02 80 3f 85 29 80 3f b1 09 80 3f 9f 1f 82 3f
       1.0000621 1.0012671 1.0002958 1.01659
000100 60 0d 80 3f 2e 44 80 3f ca f2 82 3f 3e 86 81 3f
       1.0004082 1.0020807 1.0230343 1.0119092
000110 a7 90 80 3f 7c 00 80 3f 24 bd 7f 3f 0d ff 7f 3f
       1.0044144 1.0000148 0.9989798 0.9999855
000120 5e 00 80 3f 5d 01 80 3f 38 58 80 3f 0a 2e 80 3f
       1.0000112 1.0000416 1.0026922 1.001405
000130 d3 78 80 3f 2e 1b 81 3f 79 13 81 3f 09 84 82 3f
       1.0036873 1.008642 1.0084068 1.0196544
000140 f6 87 80 3f 69 4e 81 3f be f8 7f 3f a1 79 80 3f
       1.0041492 1.0102054 0.99988925 1.0037118
000150 0b 5b 80 3f 4b d2 89 3f 06 17 80 3f f1 d8 80 3f
       1.0027784 1.0767301 1.0007026 1.0066205
000160 32 00 80 3f 01 03 80 3f 6d 38 80 3f e8 96 81 3f
       1.000006 1.0000917 1.001722 1.0124178
000170 1a a4 80 3f 64 0e 80 3f 97 90 80 3f 74 02 80 3f
       1.005008 1.0004392 1.0044125 1.0000749
000180 f8 09 80 3f 5b 3c 80 3f ee e2 85 3f fd 65 81 3f
       1.0003042 1.0018419 1.0459878 1.0109249
000190 58 ff 7f 3f e6 c4 82 3f 6f 42 82 3f ee 8a 81 3f
       0.99999 1.0216339 1.0176524 1.0120523
0001a0 a3 d4 80 3f be ff 7f 3f 99 04 80 3f a1 42 81 3f
       1.0064892 0.99999607 1.0001403 1.0098459
0001b0 76 04 80 3f d8 2d 82 3f 59 18 81 3f 38 bc 80 3f
       1.0001361 1.017024 1.0085555 1.005744
0001c0 54 5a 82 3f 2f 87 80 3f 3f f6 7f 3f 02 16 81 3f
       1.0183816 1.0041255 0.99985117 1.0084841
0001d0 b3 f5 7f 3f 8a fc 7f 3f 6e ff 7f 3f ea f0 7f 3f
       0.9998428 0.9999472 0.9999913 0.9997698
0001e0 e2 45 80 3f 6f ff 7f 3f f2 f8 81 3f be 83 80 3f
       1.0021327 0.99999136 1.0154097 1.0040205
0001f0 1f 56 80 3f 5b 60 82 3f ef bb 81 3f 96 e1 7f 3f
       1.0026282 1.0185655 1.0135478 0.9995359

bias f4 [128]
000000 70 fe cc 3c e8 00 b0 3a 15 a0 ce ba 24 92 17 bc
       0.025023669 0.0013428004 -0.0015764261 -0.009251151
000010 3a ed c9 3c 5d 93 41 3b b9 19 e1 3c 58 f2 96 3b
       0.024649251 0.0029537298 0.027478086 0.0046065263
000020 d3 f4 dd 3b 90 36 8b 3c 52 c2 62 3c da 5e 79 bb
       0.00677357 0.01699379 0.013840275 -0.003805092
000030 66 86 08 bc e2 1f 9c 3b 35 a7 06 bb 51 e5 52 bc
       -0.008332824 0.004764543 -0.002054644 -0.012872056
000040 d4 f1 22 3c 8b ca d8 3c 03 ca 4f ba 58 81 b0 b9
       0.009945352 0.026463768 -0.00079265254 -0.00033665705
000050 e3 60 e1 b9 b8 dc 5e bb db 59 d3 3a 59 76 90 bb
       -0.0004298753 -0.003400607 0.0016124801 -0.0044086394
000060 14 d5 b8 3a 97 37 b9 39 8a 61 8e 3b c4 86 eb ba
       0.0014101588 0.00035327367 0.0043451237 -0.001796924
000070 15 47 1c 3a 90 7b 2b 3a 69 d7 c3 bb c9 bd 73 3b
       0.000596152 0.00065415446 -0.0059766066 0.0037191978
000080 84 cf 7b 38 82 ea 6a 3b 51 1d 20 bc 79 85 0f 3d
       6.0036327e-05 0.0035845344 -0.009772615 0.0350394
000090 2c eb 91 3a 28 88 b7 39 25 76 22 3c a7 ae e4 39
       0.0011132709 0.00035005924 0.009915863 0.00043617675
0000a0 6c eb 2e 3a a9 a7 da 3b a6 ac 8b 3c e1 1f b3 3b
       0.0006672654 0.0066728187 0.017050099 0.0054664467
0000b0 68 c7 25 3c fd 64 11 3c fb 92 d0 3b eb ea be 3b
       0.010118343 0.008874175 0.0063651777 0.0058263442
0000c0 3c f0 c2 3b 0b ef 9f 3b 4f a9 0d b6 7a d4 db 39
       0.0059490483 0.004880791 -2.1109188e-06 0.00041929242
0000d0 4c 10 e8 3c fb 2f e5 3b e6 ef 35 3c 1a 81 b8 3a
       0.028328083 0.006994245 0.0111045595 0.0014076561
0000e0 f7 26 e4 bb c6 33 96 ba c3 1f 01 b9 c0 a6 5b 3a
       -0.006962653 -0.0011459521 -0.00012314231 0.00083790347
0000f0 28 12 36 bb 70 82 c5 ba ee f2 e4 bb 8f 71 58 3c
       -0.0027781818 -0.0015068781 -0.0069869673 0.013210668
000100 5a 23 22 bb e1 86 60 ba 7f 4a c6 3c bc d9 78 3c
       -0.002474031 -0.00085650204 0.024205444 0.015188631
000110 3c b6 33 3c 58 31 d4 bb 38 1c 3f bc 8d 0f 4a ba
       0.010968741 -0.006475609 -0.011664443 -0.0007708006
000120 b5 16 1c bb d1 c2 f2 b9 1a 7e 88 bb a8 94 19 bb
       -0.0023817245 -0.00046302986 -0.004165423 -0.0023434553
000130 d5 55 22 3c fa e9 ea 3b 9f 82 72 3c 80 c6 2f 3d
       0.009908159 0.0071690055 0.01480165 0.042913914
000140 60 2a a2 3b 58 81 aa 3c f9 c9 03 3a 90 09 1c 3a
       0.004948899 0.020813629 0.00050273497 0.00059523527
000150 15 d0 af 3b 52 30 e6 3c 06 e7 6e 3c 68 6b 64 3c
       0.0053653815 0.028099213 0.0145814475 0.013941623
000160 9a d8 a9 b9 e3 62 cd 39 63 62 3f 3c c0 34 06 3c
       -0.00032395573 0.00039174323 0.011681172 0.0081912875
000170 8d e3 cb 39 8e f8 2d 3a 2c d6 a5 3c 61 36 6f 36
       0.00038888716 0.0006636464 0.020243727 3.5645428e-06
000180 ab 23 cd b7 26 61 39 3c 15 96 8b 3c 9b b9 4d 3c
       -2.4454514e-05 0.011314666 0.017039338 0.012556459
000190 50 a2 e7 37 c1 b1 a1 3c 0a 50 df 3b d8 61 9e 3c
       2.7612929e-05 0.01973808 0.0068149613 0.019333765
0001a0 98 f1 c3 3c 56 24 9a b9 9c 41 c7 3a 2e a9 12 3d
       0.023918912 -0.0002940024 0.0015202048 0.035805874
0001b0 ac 68 2f bb ba 99 53 3c d5 6e 3d 3c 48 bc 96 3a
       -0.002676527 0.012915069 0.011562069 0.0011500204
0001c0 d6 d5 89 3c 21 37 ef 3a ba 4d 39 3b 83 ed f8 3b
       0.016825598 0.0018250683 0.0028275088 0.007596673
0001d0 74 6d c3 bb cf 85 ba ba 7b 47 27 b8 c0 31 17 3a
       -0.0059639756 -0.0014230552 -3.9882474e-05 0.0005767606
0001e0 02 3b a0 3b b3 2a a5 3a 42 86 92 3c c7 1c 05 3b
       0.004889847 0.0012601226 0.017886285 0.0020311342
0001f0 ad c2 0e bc f9 3f 16 3c 5d 2b b0 3c 17 1f 8e bc
       -0.0087134065 0.009170526 0.021505052 -0.01734881

running_mean f4 [128]
000000 00 00 00 00 00 00 00 00 00 00 00 00 00 00 00 00
       0.0 0.0 0.0 0.0
000010 00 00 00 00 00 00 00 00 00 00 00 00 00 00 00 00
       0.0 0.0 0.0 0.0
000020 00 00 00 00 00 00 00 00 00 00 00 00 00 00 00 00
       0.0 0.0 0.0 0.0
000030 00 00 00 00 00 00 00 00 00 00 00 00 00 00 00 00
       0.0 0.0 0.0 0.0
000040 00 00 00 00 00 00 00 00 00 00 00 00 00 00 00 00
       0.0 0.0 0.0 0.0
000050 00 00 00 00 00 00 00 00 00 00 00 00 00 00 00 00
       0.0 0.0 0.0 0.0
000060 00 00 00 00 00 00 00 00 00 00 00 00 00 00 00 00
       0.0 0.0 0.0 0.0
000070 00 00 00 00 00 00 00 00 00 00 00 00 00 00 00 00
       0.0 0.0 0.0 0.0
000080 00 00 00 00 00 00 00 00 00 00 00 00 00 00 00 00
       0.0 0.0 0.0 0.0
000090 00 00 00 00 00 00 00 00 00 00 00 00 00 00 00 00
       0.0 0.0 0.0 0.0
0000a0 00 00 00 00 00 00 00 00 00 00 00 00 00 00 00 00
       0.0 0.0 0.0 0.0
0000b0 00 00 00 00 00 00 00 00 00 00 00 00 00 00 00 00
       0.0 0.0 0.0 0.0
0000c0 00 00 00 00 00 00 00 00 00 00 00 00 00 00 00 00
       0.0 0.0 0.0 0.0
0000d0 00 00 00 00 00 00 00 00 00 00 00 00 00 00 00 00
       0.0 0.0 0.0 0.0
0000e0 00 00 00 00 00 00 00 00 00 00 00 00 00 00 00 00
       0.0 0.0 0.0 0.0
0000f0 00 00 00 00 00 00 00 00 00 00 00 00 00 00 00 00
       0.0 0.0 0.0 0.0
000100 00 00 00 00 00 00 00 00 00 00 00 00 00 00 00 00
       0.0 0.0 0.0 0.0
000110 00 00 00 00 00 00 00 00 00 00 00 00 00 00 00 00
       0.0 0.0 0.0 0.0
000120 00 00 00 00 00 00 00 00 00 00 00 00 00 00 00 00
       0.0 0.0 0.0 0.0
000130 00 00 00 00 00 00 00 00 00 00 00 00 00 00 00 00
       0.0 0.0 0.0 0.0
000140 00 00 00 00 00 00 00 00 00 00 00 00 00 00 00 00
       0.0 0.0 0.0 0.0
000150 00 00 00 00 00 00 00 00 00 00 00 00 00 00 00 00
       0.0 0.0 0.0 0.0
000160 00 00 00 00 00 00 00 00 00 00 00 00 00 00 00 00
       0.0 0.0 0.0 0.0
000170 00 00 00 00 00 00 00 00 00 00 00 00 00 00 00 00
       0.0 0.0 0.0 0.0
000180 00 00 00 00 00 00 00 00 00 00 00 00 00 00 00 00
       0.0 0.0 0.0 0.0
000190 00 00 00 00 00 00 00 00 00 00 00 00 00 00 00 00
       0.0 0.0 0.0 0.0
0001a0 00 00 00 00 00 00 00 00 00 00 00 00 00 00 00 00
       0.0 0.0 0.0 0.0
0001b0 00 00 00 00 00 00 00 00 00 00 00 00 00 00 00 00
       0.0 0.0 0.0 0.0
0001c0 00 00 00 00 00 00 00 00 00 00 00 00 00 00 00 00
       0.0 0.0 0.0 0.0
0001d0 00 00 00 00 00 00 00 00 00 00 00 00 00 00 00 00
       0.0 0.0 0.0 0.0
0001e0 00 00 00 00 00 00 00 00 00 00 00 00 00 00 00 00
       0.0 0.0 0.0 0.0
0001f0 00 00 00 00 00 00 00 00 00 00 00 00 00 00 00 00
       0.0 0.0 0.0 0.0
