garbage.pt (torch, 390173 bytes, 21 tensors)

weight f4 [16, 3, 2, 2]
000000 8a e2 18 be 0e c4 62 3e 35 27 a4 be ae a3 93 3e
       -0.14930168 0.22145101 -0.32061163 0.28835815
000010 3d c3 fa be b8 39 0a be 6c 62 8d be 8c 6d 6f 3e
       -0.4897708 -0.1349858 -0.27614152 0.23381633
000020 ca d4 46 3e bc 74 80 3e bb e8 0b be 85 45 e9 3e
       0.1941711 0.2508906 -0.13662998 0.45560852
000030 df 2d c2 bc c7 89 00 3e d9 32 ca 3d e2 96 a2 bc
       -0.023703514 0.12552558 0.0987298 -0.019847337
000040 df 60 87 3e df 6e b5 3e 72 3f 6a 3c 35 02 49 bd
       0.26441094 0.3543615 0.014297353 -0.04907437
000050 94 6f 5a be db 96 c0 bd 79 2e b0 3d a2 38 3d be
       -0.21331626 -0.094037734 0.08602614 -0.18478635
000060 5e c0 12 bd 03 a2 01 bd 99 59 ba 3e 71 60 bd 3e
       -0.035827987 -0.031648647 0.36396483 0.3698764
000070 bb 06 93 be 78 13 a5 3d b9 0f 95 3e 9e 2f c1 3e
       -0.28716072 0.08060354 0.29113558 0.37731642
000080 8e db 80 be 38 fa 8e be df 37 91 3e 05 94 d4 bc
       -0.25167507 -0.27925277 0.2836294 -0.025949487
000090 e2 0a c5 bc 61 62 63 bc 1d 0a 0a 3e 7c 46 90 3d
       -0.02405304 -0.013878436 0.1348042 0.07044694
0000a0 55 d2 0f 3e 4c 8a a2 be ac 80 a0 3e bb 61 9c be
       0.14045079 -0.31746137 0.3134817 -0.30543312
0000b0 97 7e 42 3e 1f 7b af 3c fd c2 e7 3d 5b 21 c7 3e
       0.18993603 0.021421013 0.11316488 0.38892636
0000c0 0a 04 ee 3d ed 91 45 bd 20 9d 1d 3e 66 59 3e be
       0.11621864 -0.04823487 0.1539197 -0.1858879
0000d0 a5 eb 92 3e 7a ce 96 be 38 56 94 3e 2b 56 71 3e
       0.28695408 -0.29454404 0.2897203 0.23568027
0000e0 28 b7 9b 3d 2b 96 41 3d 6e 81 5c 3e 17 a1 68 be
       0.07603294 0.047262352 0.21533749 -0.22717701
0000f0 e3 c7 2d 3e 61 32 aa bd a5 de ae be 0f 6d 78 3e
       0.16970782 -0.0831039 -0.3415424 0.24260353
000100 4a 72 98 be 0b cf 9f 3e 79 e6 f3 ba 88 21 10 3e
       -0.29774696 0.3121265 -0.0018608115 0.14075291
000110 59 b3 60 bc 2c 99 8b 3e 66 16 6f be 4a f8 de bd
       -0.013714635 0.27265298 -0.23348388 -0.10887201
000120 89 65 84 be 67 64 b0 bd 92 0e b5 be 25 ce 52 be
       -0.25858715 -0.086129 -0.3536268 -0.2058645
000130 94 6a 04 3d 2c 63 73 3e 43 56 9a be 17 a2 04 be
       0.032328203 0.237683 -0.30143937 -0.12952457
000140 5b 6b 9b bd 1e 48 c1 3e 43 ff 1c bd 9b 43 8a 3e
       -0.07588836 0.37750334 -0.038329374 0.27004704
000150 77 07 2b 3d 8c d9 a5 be e6 16 f3 3d 33 5e 91 bc
       0.041755166 -0.32392538 0.11869602 -0.017745113
000160 d6 25 61 3e 6a 5d d9 3c db 5f c7 3e 7e a1 ae be
       0.2198709 0.026533801 0.3894032 -0.34107584
000170 c1 d4 c6 3d 9d a4 af bd fc 47 9f 3e c3 65 01 be
       0.09708548 -0.08576319 0.31109607 -0.12636475
000180 3a d9 8c bd ff 35 c6 bd 9f 6c 0e 3e 52 d2 df 3b
       -0.0687737 -0.09678268 0.13908623 0.006830492
000190 e3 67 b0 be b3 44 7f 3e 83 47 26 3e d3 cb 9e 3e
       -0.3445426 0.2492855 0.16238217 0.3101488
0001a0 54 52 ef bd e6 17 75 3e 09 58 03 3e 75 f9 7a bd
       -0.11685625 0.23934898 0.12826551 -0.061273057
0001b0 6b e0 69 3e 9a dc 2d 3e 62 28 19 3e 92 a2 14 3e
       0.22839515 0.16978684 0.14956811 0.1451514
0001c0 b5 df 5c 3e f7 13 94 be 91 39 76 be 9c f2 2e be
       0.21569712 -0.28921482 -0.24045397 -0.17084736
0001d0 39 fa bd 3d 09 0b db bd 9c 63 72 3d d6 d7 5c be
       0.09276242 -0.10695464 0.059177026 -0.2156671
0001e0 77 6f a6 3e bc a0 8c 3e e1 eb cb 3e 91 e3 9f 3e
       0.32506916 0.2746638 0.398284 0.31228307
0001f0 d0 d5 f5 be 4a 00 dc be 46 9d d0 be 69 36 0c 3e
       -0.48014688 -0.4296897 -0.4074499 0.13692631
000200 ee 5d c9 bd e3 f6 20 3e e8 c3 5e 3e 66 08 f2 bc
       -0.09832369 0.1571918 0.2175442 -0.02954502
000210 b4 9c 20 be 46 6c 91 3e 27 3e 55 3e 01 ff 60 bd
       -0.15684777 0.2840292 0.2082449 -0.05493069
000220 96 05 97 3d eb 24 44 3b d4 8e 19 3e 21 36 72 3c
       0.07374112 0.0029929231 0.14995891 0.014783413
000230 3e 7d 6e be e8 02 83 be b6 88 59 3e b8 a7 bc 3b
       -0.23289964 -0.25588155 0.21243557 0.0057572983
000240 85 d5 b9 bd 5f 76 00 3d 70 73 b4 3e 55 a8 31 be
       -0.09073929 0.031362887 0.35244322 -0.1734937
000250 41 e7 82 be cb f0 2a bd 50 8e 6f bd 06 1d f3 3c
       -0.25567058 -0.041733544 -0.05848533 0.029676925
000260 22 05 c7 3d 3c f3 fe bd bd 95 4d be 41 d4 73 3c
       0.09717776 -0.12448737 -0.20076652 0.014882148
000270 33 b9 7a be 12 f2 b3 bd 3d 01 3a bd 0e a3 88 3e
       -0.2448471 -0.087864056 -0.045411337 0.266869
000280 be 95 96 3e 5c ff 0e be 7f d7 92 be 8f d8 56 3e
       0.2941112 -0.139646 -0.28680035 0.20981048
000290 c7 06 56 be dd 06 1f bd d2 27 c1 bc 5e e9 9a bd
       -0.20901023 -0.038824905 -0.023578558 -0.075640425
0002a0 26 b1 42 bb 8d 82 56 3e a9 2f ff bd 4e b4 85 be
       -0.002970764 0.20948239 -0.12460262 -0.26114124
0002b0 b4 d1 b5 3e f1 bc 57 bd 7c cf ec bd 3d bd b4 3e
       0.35511553 -0.052670423 -0.11563012 0.35300627
0002c0 b7 e5 24 be 17 3f 29 3e 1d 45 ab be 2d 2c bb be
       -0.16103254 0.16527973 -0.33451167 -0.3655714
0002d0 37 48 0d 3e de 89 c5 3e 6b 7c a5 3e d8 11 75 be
       0.13797079 0.38581747 0.32321486 -0.23932588
0002e0 e3 d5 37 3e 0e cc 63 be 1e 95 8e be 93 36 e8 be
       0.17952685 -0.2224581 -0.27848142 -0.45354137
0002f0 13 eb b1 3d 7b 78 7b be be f9 e5 bd 73 35 2b 3e
       0.08687415 -0.24557678 -0.11229275 0.16719608

bias f4 [16]
000000 8f e9 94 bd 37 86 1b bd 6c bc 99 3c 09 6f 3d be
       -0.0727111 -0.037969794 0.018766604 -0.18499388
000010 aa 41 22 be a6 1d 2c 3e fb 43 35 3c 70 38 4a 3d
       -0.15845361 0.16808185 0.011063571 0.04937023
000020 9c 3d 2e 3e 40 fd 67 3e fe 4f 53 be f9 6d 37 be
       0.1701569 0.22655201 -0.20635983 -0.17913045
000030 17 52 8e 3d 98 b1 c1 3d 93 f2 fb 3d bf 7b a5 3d
       0.06949251 0.094577014 0.12302127 0.08080243

weight f4 [16, 16, 2, 2]
000000 e3 5b ac 3d 8c 58 80 3d 56 f5 26 bc ec cf 73 3d
       0.084159635 0.06266889 -0.010190329 0.05952446
000010 b1 4a 2d bd 56 f2 5d 3d 4b f9 34 bd ad d9 f2 3c
       -0.04230756 0.054186188 -0.044183057 0.029644812
000020 53 ca c6 bc 5e f8 1f 3d 4f 1f a0 bd 41 16 41 3d
       -0.024266398 0.03905522 -0.07818472 0.047140364
000030 35 cd 19 3d 56 7f ea 3c 89 60 e4 3d 15 cf 9c 3d
       0.037549216 0.028625172 0.11151225 0.07656685
000040 ec ef 4d bd 1e 4a 0d 3e b9 74 ca 3a b4 19 7a 3d
       -0.050277635 0.13797805 0.0015446163 0.06105967
000050 1c dd 08 3e a6 69 a4 bd df 0e ab 3d e9 3e f8 bd
       0.13365597 -0.08027963 0.08352446 -0.12121374
000060 73 ac 44 bd 19 b6 6c bb 37 16 16 ba 65 c1 21 be
       -0.048016023 -0.003611928 -0.0005725356 -0.1579643
000070 02 f0 b0 bd b7 95 17 3e ec 4a 8e bd 89 04 34 3e
       -0.08639528 0.14803205 -0.06947884 0.17579855
000080 3d d0 c5 bb af 3b ea 3c a1 e3 30 bc 4d 3e cb 3c
       -0.006036787 0.028592912 -0.010796458 0.02480998
000090 dd 8a 93 3d 63 3a 35 bd 0e 41 ec bd 90 6e 13 3e
       0.072042204 -0.044245135 -0.11535846 0.14397645
0000a0 9b 69 f0 3d 19 59 c2 bd 2f b3 98 bc 3f fd 89 bd
       0.11738893 -0.0948965 -0.018640129 -0.06737756
0000b0 8b 68 bb 3d 8f 66 47 3c 8b 93 2b bd d3 a1 3f bd
       0.09150799 0.012170448 -0.041888755 -0.046785187
0000c0 14 21 c8 3d 30 6b ab 3d b5 11 b0 3d cc 12 7f 3c
       0.09771934 0.08370054 0.08597127 0.015568446
0000d0 6d 29 d3 bd 51 46 24 bd 2d 98 b3 3d 11 3c d5 3d
       -0.10310636 -0.04010612 0.087692596 0.104118474
0000e0 48 30 07 bd bb c5 37 ba 78 1e 74 3d 97 77 f8 36
       -0.03300503 -0.000701036 0.05959937 7.404898e-06
0000f0 95 41 e4 bd 3b e5 9b 3d 2d 94 18 be 11 eb 40 bc
       -0.11145321 0.076120816 -0.14900275 -0.011774794
000100 f6 d7 93 3d ba 91 e8 3d fd df f4 3d 87 b3 99 3d
       0.07218926 0.1135592 0.11956785 0.07504945
000110 6a 25 bd bd 60 ce cf b8 f1 ac 16 be ae de b3 bd
       -0.09235652 -9.9089695e-05 -0.1471441 -0.08782707
000120 9b 62 26 bd 0a 82 f7 bd 2c 38 5a bd 64 b5 b7 bd
       -0.04062138 -0.1208535 -0.053276226 -0.089701444
000130 35 0c 4b 3e 51 a8 67 3d 83 69 63 3e 48 22 aa 3d
       0.19828875 0.056557003 0.22208218 0.0830732
000140 3d 65 44 3d 67 07 88 bc ba 23 d4 3d d7 ff a1 bc
       0.04794811 -0.016605092 0.10358377 -0.019775314
000150 ec a0 fd 3b 62 a8 73 bd db b0 c5 3c 09 e6 d1 bd
       0.0077401306 -0.059486754 0.024132183 -0.10248954
000160 6a 21 4e 3e ef 00 67 3d 2e db 2b 3e 7f 75 c7 3d
       0.20129934 0.056397375 0.16782829 0.097392075
000170 45 b1 8f ba f2 1f d1 3d 2a cc 8c 3d ee 00 51 bb
       -0.0010962865 0.10211171 0.06874879 -0.0031891423
000180 86 3b 80 3d 1a cb 40 3d c0 65 a9 3c 97 8a 22 bd
       0.06261353 0.047068693 0.020678401 -0.03968295
000190 96 17 c7 bd 65 88 65 bd 2b 94 29 bc 10 11 58 bd
       -0.097212955 -0.05603828 -0.010350267 -0.052750647
0001a0 bd 2d b5 bd ff c5 51 3d 37 8f 07 3e 65 a0 1a bc
       -0.088466145 0.051214214 0.13238226 -0.009437655
0001b0 af 7f bd bd 67 a5 16 3b 4b 21 d6 bd 50 cb 26 be
       -0.09252869 0.002298677 -0.10455569 -0.16288495
0001c0 ee 1c b8 3c e6 4d e6 bc 26 51 c1 bd d8 cc 5e bd
       0.022474732 -0.028113317 -0.09439306 -0.054394573
0001d0 cb 1a 27 be 41 7f 5f bd aa c2 b5 3c 45 2c b1 bd
       -0.16318814 -0.05456472 0.02218755 -0.08651022
0001e0 1e 64 14 be 72 e1 21 be d5 92 29 be a9 02 f3 bc
       -0.14491317 -0.15808657 -0.16559918 -0.029664354
0001f0 8f db c3 3d 47 b4 cb 3a 19 2d 88 3c a5 06 7f bd
       0.09563362 0.0015541398 0.016623067 -0.062262196
000200 c8 1f c7 3c f4 98 06 be fd 3a 27 be 11 d0 ee 3d
       0.024307147 -0.13144284 -0.16331096 0.11660779
000210 f1 ed 1f bd 55 3a d1 3b b0 ee 17 bc f7 16 79 3c
       -0.039045278 0.0063851275 -0.009273216 0.015203229
000220 e9 3e a8 bd e3 f1 8d 3d 16 b6 8d 3d f3 2c d9 bb
       -0.08215124 0.06930902 0.06919496 -0.006627673
000230 39 e3 99 3d 47 1b 03 bd d0 5a 10 be 98 00 13 bc
       0.075140424 -0.032008436 -0.14097142 -0.0089723095
000240 bf fa c6 3d ee 36 60 bd 85 cb 17 3c a6 91 5d bd
       0.09715795 -0.054739885 0.009264831 -0.05409398
000250 c6 e6 bd 3d 59 79 4d 3d 54 9c 92 3c 5f 72 89 3c
       0.09272532 0.050164554 0.017896809 0.01677817
000260 d9 75 84 bc e6 f5 07 3d aa 75 7f 3d a5 d7 23 bd
       -0.016169475 0.03319349 0.062368073 -0.040000577
000270 94 8e c3 3d d9 3f a9 bd b6 61 c3 3d e8 c9 15 be
       0.09548679 -0.08264131 0.09540121 -0.14627802
000280 1e af 90 bd 8b 24 2f 3d 5d ef e5 3d 87 57 b6 bd
       -0.07064651 0.04275946 0.112272955 -0.08903413
000290 2b 09 5a 3c 63 26 da 3b 86 c1 b2 bd 3e 0d fa 3d
       0.01330785 0.006657408 -0.08728318 0.12209557
0002a0 10 33 01 3e 19 2d 24 3d 42 8e 0c bd 22 29 e0 bd
       0.12617135 0.04008207 -0.034315355 -0.109453455
0002b0 be 4b e2 bd a5 92 07 3e 9a f5 78 3d 0d 64 33 3d
       -0.11049603 0.13239534 0.0607811 0.043796588
0002c0 5d f6 7c 3d 2e 1d a4 bd ed 6a d0 3d b9 91 d2 bd
       0.061758388 -0.08013378 0.101766445 -0.10281701
0002d0 02 64 9c 3d 6e 39 52 3d 06 30 f8 bc 52 a8 3c bd
       0.076362625 0.0513243 -0.030296337 -0.04605896
0002e0 4f e8 e3 bd 6b bc 92 3d f3 b5 65 bb 43 66 dc 3d
       -0.11128294 0.07164844 -0.0035051077 0.107616924
0002f0 6b 8b c7 bc 9b 4a 02 3e 97 ae 10 3e 21 24 96 3d
       -0.024358472 0.12723772 0.141291 0.0733111
000300 bc 91 26 bd 6a 79 f0 bc 18 db 9c bc c2 28 5b 3d
       -0.040666327 -0.02935477 -0.01914744 0.053505667
000310 93 68 e8 bd d4 06 99 3c aa 8b 5a bc c3 23 cc bd
       -0.11348071 0.018680014 -0.013338963 -0.099677585
000320 19 f7 8c be d4 22 b4 be 56 e7 e7 3d 37 b0 8d bd
       -0.2753227 -0.35182822 0.11323421 -0.06918376
000330 83 44 66 3d a3 34 f0 bd 46 da b8 3b 8a bc a9 bb
       0.05621768 -0.1172879 0.0056412546 -0.0051799463
000340 ee af 78 bd a1 2f d6 bd 93 d0 dd bd 73 66 86 bd
       -0.060714655 -0.10458303 -0.10830798 -0.065625094
000350 99 64 9f bd 64 91 72 3d 5e be 38 be 11 5a c9 bd
       -0.07782859 0.059220687 -0.1804137 -0.09831632
000360 59 a8 93 3d 3c 05 49 3e c4 02 c5 bc 63 9c 6a bb
       0.07209844 0.19630903 -0.02404917 -0.003579878
000370 c5 7c 32 bd 4f 8b c0 3c a1 27 d5 3c 98 8d 39 bd
       -0.04357602 0.023503928 0.026019873 -0.04530105
000380 1b 1d 12 be a6 1a 2f be 19 35 a2 bd c6 85 c7 bc
       -0.14268915 -0.1710001 -0.07920284 -0.02435578
000390 f9 ce a5 3d 0d 2b 09 bd da 20 0f be 23 77 9f 3d
       0.080961175 -0.033488322 -0.13977376 0.077863954
0003a0 81 6f 0e bd ce 4f 24 be 00 5f 05 3e 45 dc 6d bd
       -0.034774307 -0.16046068 0.13024521 -0.058071394
0003b0 9c dc b1 bc 57 dd d3 bd bd f5 9b bd 82 51 f7 3d
       -0.02171164 -0.103449516 -0.0761523 0.12076093
0003c0 5f 8c a3 3d 76 ec 36 bd 16 12 8b 3d 31 ec f2 3d
       0.07985758 -0.0446591 0.06790559 0.11861456
0003d0 fe df ef 3c 08 21 9b 3c cf b6 15 3b 27 be d5 3d
       0.029281612 0.018936649 0.0022844558 0.10436659
0003e0 c0 a6 14 bd 2a 21 8d 3d ab bb 41 be 60 ea fa bd
       -0.036291838 0.06891091 -0.18919246 -0.12251735
0003f0 ce 8f be 3d 7c 96 09 3c 08 98 8a bd 8a 69 a2 3d
       0.09304772 0.008397695 -0.06767279 0.07930286

bias f4 [16]
000000 93 ab c2 bd 53 ec 4f bd 7e 23 aa bd a0 ec 68 3c
       -0.095053814 -0.050762486 -0.08307551 0.014216572
000010 65 c5 8a be 38 62 ad bd 55 f2 a2 3d fe 8b 1f bd
       -0.27103725 -0.08465999 0.079563774 -0.038951866
000020 14 bc 9a 3c 07 07 95 bd ae e8 ec 3c 27 15 25 3e
       0.01888851 -0.07276731 0.028919544 0.1612135
000030 71 e9 35 bb 77 dc 1f be bf 56 97 bd 7e 3a d3 bc
       -0.002775755 -0.15611444 -0.073895924 -0.025784727

weight f4 [16, 16, 2, 2]
000000 d9 bd 8b 3d e0 ce be 3d cf 40 60 bd 03 6d 05 3e
       0.0682332 0.09316802 -0.054749306 0.13029866
000010 57 b5 d9 3d 8a 3d e9 3d cc 91 8c 3d f2 4d 82 3d
       0.10630291 0.11388691 0.06863746 0.06362523
000020 0c ef ba 3d 5f 7a 0f 3e f6 08 ec 3c 3f 00 f4 bc
       0.09127626 0.14011525 0.028812867 -0.029785274
000030 ba fb ef bc 41 d1 61 be e9 4b 7f bd 3c 50 4d be
       -0.029294837 -0.2205248 -0.062328253 -0.20050138
000040 a9 7f a0 bc 2b e7 d7 3c e5 ab 2a bd f4 3d ba bd
       -0.019592123 0.026355347 -0.041667838 -0.09093848
000050 9b 60 fc 3d ef 56 b4 3c 06 a5 a5 bd 24 c5 98 bd
       0.123231135 0.02201411 -0.08088116 -0.074594766
000060 7d 66 99 3d a7 97 dd 3d 95 90 2c 3d c1 9d 88 3c
       0.07490251 0.10819941 0.04213007 0.016676785
000070 4f ca eb 3d 11 a8 ce 3d 3a 3e 46 3b c4 05 a3 3d
       0.11513197 0.1009065 0.0030249492 0.07960084
000080 58 f6 0b 3e e2 6d da bc e6 23 87 3d ef 5c d4 3d
       0.13668191 -0.026663724 0.06598644 0.10369288
000090 ba 21 fb bc 1a 14 d3 bd 6b 86 69 bd e4 57 98 3d
       -0.03065573 -0.103065684 -0.057012957 0.07438639
0000a0 ec 9e 93 3d 02 2b 21 3e 37 7c 1f 3e d9 c2 45 3e
       0.07208046 0.15739062 0.15574728 0.1931261
0000b0 d5 e8 2a be e0 8e b3 3d af b8 b5 3c 8f 4c e2 bd
       -0.16690381 0.087674856 0.02218279 -0.11049759
0000c0 f9 d9 e1 3d 5e 0d 34 3e d3 5a 50 3e e6 05 09 3e
       0.11027903 0.17583224 0.20347147 0.13381156
0000d0 ef 28 33 bb b3 dd 7a 3d 4d 8b 60 bd 9d 17 55 3b
       -0.002733763 0.061246585 -0.054820348 0.0032515295
0000e0 e3 9e a2 3d 39 fd 20 3e a3 3d 7b 3d 9d 08 38 3e
       0.079404615 0.15721597 0.06133808 0.17972036
0000f0 37 95 a0 3c 6e 9d 36 3e 92 55 8e 3c 8b 88 8a 3d
       0.019602401 0.17833492 0.017374787 0.06764325
000100 b2 92 98 bc 3d 13 ba bc 70 0f a5 3d 03 e0 3a 3d
       -0.018624637 -0.022714252 0.08059585 0.04562379
000110 00 83 b8 bc f0 b4 e7 bd 9f 44 b7 bd df bb d9 bd
       -0.022523403 -0.11313808 -0.08948635 -0.10631537
000120 e3 51 03 bd 5c 94 c4 3d a0 03 b7 bc d3 aa ca 3d
       -0.032060515 0.0959861 -0.022340596 0.098958634
000130 cc 93 7c 3c 6a 5a 1b bc 80 79 d2 3d e1 1b 11 bd
       0.015416097 -0.009482006 0.102770805 -0.035426978
000140 6c c1 04 3e 77 46 0f 3e e1 74 56 3e 1f c0 fc 3d
       0.1296441 0.13991724 0.20943023 0.12341332
000150 b2 7d b3 3b 39 ac 57 bd f9 ca c2 bd 00 b2 c3 bd
       0.0054776305 -0.05265448 -0.0951137 -0.09555435
000160 d0 07 c9 bd f3 ae eb bd 41 8d 37 bd 89 c8 0f 3a
       -0.09815943 -0.11507978 -0.044812445 0.0005484899
000170 c9 cd a7 3a ad 45 5f 3d 7f 62 85 3d 91 ae 05 be
       0.0012802418 0.054509807 0.06512927 -0.13054873
000180 00 62 21 be 10 e1 77 bd 92 58 b8 bc f7 ea 7a 3d
       -0.1576004 -0.06051737 -0.022503171 0.061259236
000190 3c 11 bc 3d 25 bf 97 bc 28 b2 43 3e e4 75 39 3e
       0.09182975 -0.018523762 0.1911093 0.18111378
0001a0 e9 36 0a bd 68 9c a1 bc 4a 47 80 3c 11 89 49 bc
       -0.033743773 -0.0197279 0.015658993 -0.012300746
0001b0 e4 71 a7 3c 12 67 8a bc 2b 93 13 be ea bb f9 bd
       0.02044005 -0.01689485 -0.14411609 -0.12194045
0001c0 01 95 8b 3a 8d 40 25 be 36 2e 71 3d 2e f5 67 3d
       0.0010649265 -0.16137905 0.05888196 0.056630306
0001d0 7f 56 15 3e 90 e6 98 3d 70 c5 d5 bc 70 d7 4d 3e
       0.14583777 0.07465851 -0.026095122 0.20101714
0001e0 8b 8a 30 be 36 61 0a bd ea 43 44 be dc 12 ac bd
       -0.1724035 -0.033784114 -0.19166532 -0.08402035
0001f0 9f 15 cb bd 24 4e 81 3d 23 1a 21 be 37 59 bd bb
       -0.09916233 0.06313732 -0.15732627 -0.0057784575
000200 1b ad 9b 3b 44 7e 04 3d f7 99 5b bc 21 5a d7 bd
       0.0047508604 0.03234698 -0.013403407 -0.105152376
000210 e1 3e 3e 3e 15 ff d8 3d ca 80 71 3d 99 d2 20 bd
       0.18578674 0.10595528 0.058960713 -0.03926334
000220 bb 15 f7 bd 7e 1f 8d bd 2b ef be bd 82 95 e7 3c
       -0.12064692 -0.06890772 -0.093229614 0.028269533
000230 40 23 4c 3d 0e c3 b4 3d 08 96 d0 39 f6 54 a8 3d
       0.049838305 0.08826266 0.00039784634 0.0821933
000240 4a 18 6e bd 3f 7d cb bd e3 d1 1f be f7 09 e9 bd
       -0.058128633 -0.09935998 -0.15607409 -0.11378854
000250 24 93 60 3d b9 1d a9 bd df dd c7 bd 58 9e 8c 3c
       0.054827824 -0.08257622 -0.097591154 0.017165348
000260 e3 8e 80 bd fb 48 0a bb f7 b0 cf bd fb 43 ac 3d
       -0.062772535 -0.0021100629 -0.10141175 0.08411404
000270 e5 75 ed 3a d9 2f 46 3d 65 1f 2c bc 4d 02 97 3d
       0.00181168 0.048385475 -0.010505532 0.07373486
000280 ec 54 51 3c b9 cc df 3d e4 80 a5 bd 84 dc a8 3d
       0.012776595 0.109277196 -0.080812246 0.08245185
000290 26 0f e1 bd 8f 44 7e 3c 37 6f 08 be 2e f7 48 bd
       -0.109892175 0.015519275 -0.13323675 -0.049063854
0002a0 23 bc fe bd 4b 94 13 be 18 09 81 3d c3 05 80 3c
       -0.12438228 -0.14412038 0.063005626 0.015627747
0002b0 66 77 e9 bd 14 f3 bf bd e1 57 e5 3c 9a a2 10 be
       -0.113997266 -0.09372535 0.027996005 -0.14124528
0002c0 7e 0f 75 3d 00 0f 96 bc 9e 38 84 3c 56 7d 99 3d
       0.059829228 -0.0183177 0.016140278 0.07494609
0002d0 26 46 1b be c4 d8 97 bd ca dd 06 be 2e 52 89 bd
       -0.15163478 -0.07414392 -0.13170543 -0.06705128
0002e0 9b f9 12 3e c5 a8 e1 3b 51 ea d8 bb 6e 17 27 3e
       0.1435303 0.006886574 -0.0066197296 0.16317531
0002f0 a4 c1 4b 3e 1d b1 b7 bc fb e0 0b 3e 0f 47 53 3e
       0.19898087 -0.022423321 0.13660042 0.20632575
000300 bc d1 ea 3b 27 1e 27 3b b7 b6 d3 bb f1 db fd 3b
       0.0071661156 0.002550015 -0.0064609903 0.0077471663
000310 39 55 40 3d 6a ec 1b 3d 92 83 e6 bd 87 8d 92 bd
       0.046956275 0.03806726 -0.11255564 -0.071559004
000320 08 6b ab bd 18 c3 ff 3d e8 19 97 3d 0d 9f 8e 3d
       -0.08370024 0.12488383 0.07377988 0.0696393
000330 22 a4 07 be 9b 19 11 be f6 c7 2c 3d 45 ca 20 be
       -0.13246205 -0.14169924 0.042182885 -0.1570216
000340 1e b9 04 be b7 8f d1 3c eb 2b ce bd 26 a8 cc bb
       -0.12961242 0.025581224 -0.100669704 -0.006245631
000350 79 24 d4 3d 33 3a 9f bd bf b9 73 3d 2f b1 e6 3c
       0.10358519 -0.077747725 0.059503313 0.02816066
000360 fa 9b 8d 3d a1 9a b2 bd 64 65 08 3e 45 c1 88 3d
       0.06914516 -0.087208994 0.13319927 0.06677488
000370 f4 80 de 3d 0f 01 dc 3d 26 fd 86 3d 4d 97 4f bc
       0.108644396 0.107423894 0.06591253 -0.01267035
000380 b5 6c 59 3b 82 56 b6 3d 8d d2 db 3d 2c 70 81 3d
       0.0033176367 0.08903219 0.10733519 0.06320223
000390 70 6b 0e be fc 85 11 bd a5 b9 c5 3d a9 cf 86 3d
       -0.13908172 -0.035528168 0.096545495 0.06582577
0003a0 96 0e 0d 3e d5 40 ab 3d 0f 57 a7 3d 8b 1f d2 bd
       0.13775095 0.08361975 0.08170902 -0.102599226
0003b0 95 f0 52 3b 38 01 07 be 0d bb dd 3c 81 95 d9 bd
       0.0032186855 -0.13184059 0.027066732 -0.10624219
0003c0 81 03 d5 3b 7c b3 0c 3e 31 60 bc 3d be 7f 34 3e
       0.006500662 0.13740343 0.091980346 0.17626855
0003d0 1e aa eb 3d cf 46 95 bd 64 72 67 bd ea 6c f0 3d
       0.11507057 -0.07288896 -0.056505576 0.11739524
0003e0 d8 c7 03 3e ee 53 da bd 85 02 1a 3e a8 7b 00 be
       0.12869203 -0.106605396 0.15040024 -0.12547171
0003f0 3d 7b c4 3d 4b cc 06 be e6 e7 0c 3e ce b4 95 3d
       0.09593818 -0.13163869 0.13760337 0.073098764

bias f4 [16]
000000 21 d2 1c bd b0 a2 a1 be 0d 74 08 bc 36 30 98 3d
       -0.038286332 -0.31569433 -0.00832845 0.074310705
000010 0d bd 6e 3d be 5f c0 3d 52 fc 4c 3d e4 16 e3 3d
       0.05828576 0.093932614 0.05004532 0.110883504
000020 e3 08 64 bd a2 59 6a 3e 4d 8e 23 3e 8d 96 56 bc
       -0.055672538 0.22885755 0.15972252 -0.013097418
000030 03 be 1c be a1 01 4f be 25 b3 0a 3e eb 6a 97 be
       -0.15306859 -0.20215465 0.135449 -0.2957376

weight f4 [16, 16, 2, 2]
000000 f7 8e 2f bc 36 a9 8d 3d 9b ab 80 bd 61 ca fb 3c
       -0.010715238 0.0691704 -0.06282731 0.03073615
000010 84 f5 b0 bd e1 34 9f bd fd 5e 4c bd ac cc 12 bd
       -0.086405784 -0.07773758 -0.049895275 -0.03583972
000020 f6 19 f9 3d c9 1d 23 3e e1 a1 99 bc 90 c4 d5 3d
       0.12163155 0.15929331 -0.018753948 0.10437882
000030 a6 73 b5 bd 5b a7 09 be c6 47 e7 bb b8 48 ee bd
       -0.08859949 -0.13442747 -0.0070581166 -0.11634964
000040 76 7f 47 bd d8 fd 53 bd 81 47 d6 3c 20 8f 12 3e
       -0.04870554 -0.051755756 0.026157143 0.1431241
000050 51 58 97 bd 7b 03 52 3c 01 bd 1a be bd 9c b9 bd
       -0.07389892 0.012818213 -0.15111162 -0.090630986
000060 d6 6f cc 3d ea fb 1b 3d 11 01 37 bd 16 e9 be 3d
       0.099822685 0.03808204 -0.04467875 0.09321801
000070 ec 38 d9 bd 18 eb e8 bd e3 1a c6 3d 2b bf 9f bd
       -0.1060656 -0.113729656 0.09673097 -0.07800134
000080 53 2a 00 3d 80 7a e6 3d 10 82 92 3c 0e 3e b9 bd
       0.031290364 0.11253834 0.017884284 -0.09045039
000090 a8 93 0f 3e d4 0c af bd db 5d 4d 3d 83 31 01 3e
       0.1402117 -0.08547369 0.050138336 0.12616543
0000a0 6c ba b7 3d de 0d f5 bb 81 86 83 3c f9 f8 40 bd
       0.08971104 -0.0074784597 0.016055347 -0.04711244
0000b0 8c fc c9 bd a3 ca 5f 3d 73 bf d2 bd e5 df 0c 3b
       -0.098626226 0.05463661 -0.10290422 0.0021495756
0000c0 85 21 5b bd 2a 9e cc 3d 99 b2 26 bd c0 95 e0 bd
       -0.053498764 0.09991105 -0.040697668 -0.109660625
0000d0 59 7b 23 bb c2 1a c6 3d 79 30 ba 3c bc 8c 8c bd
       -0.0024945347 0.096730724 0.022728192 -0.068627805
0000e0 d1 98 db 3b 02 ba c4 3c 95 42 f8 3d 73 6a 12 3d
       0.0067015667 0.024014477 0.121220745 0.03574605
0000f0 ca 69 a1 3d 1e 9e 3c bb 08 32 a9 bd 81 83 c7 3c
       0.07881506 -0.0028780769 -0.08261496 0.024354698
000100 f8 d2 c1 bc 04 1e e4 3c f3 24 c0 bd 0b 38 29 3c
       -0.023660168 0.027846344 -0.093820475 0.010328303
000110 52 b3 92 3d 3d d5 36 be 20 e3 bf bd e1 ba 3a be
       0.07163109 -0.17854781 -0.093694925 -0.18235351
000120 d9 33 bf 3d bc e1 06 3c 54 9a e7 bd ef 21 8a 3c
       0.09336061 0.00823253 -0.11308733 0.016861884
000130 86 a9 97 bc 25 83 86 bd 26 72 29 bd 63 90 26 bd
       -0.018513452 -0.065679826 -0.041368626 -0.04066504
000140 4b 17 e2 bd 10 38 9c 3d c9 da e0 3c 16 63 aa bd
       -0.11039599 0.076278806 0.027448075 -0.083196804
000150 83 13 42 bd d3 f5 fd bd ba 49 a8 bd 0c 05 d7 bd
       -0.04738189 -0.12400403 -0.08217187 -0.104990095
000160 96 d1 a4 3d 72 91 b3 bd fd 7f fb bc da 37 5f 3b
       0.08047788 -0.08767976 -0.030700678 0.003406039
000170 6f 6c 82 3d c7 3d 96 bd 4a 7e 0e bd 18 2c bf 3c
       0.06368338 -0.07336002 -0.034788407 0.023336455
000180 a3 5f 4d bd fe 23 8b bc 16 14 81 3c b3 55 c8 bc
       -0.050140034 -0.016984936 0.015756648 -0.024454927
000190 89 57 a3 bc ce 73 c4 3d 4a c9 56 bd a5 dd ba 3d
       -0.019939201 0.095924005 -0.052438058 0.091243066
0001a0 76 01 38 3d 1c 8e c6 3d 97 a7 d2 3d de d6 9a 3d
       0.04492327 0.09695074 0.102858715 0.07560514
0001b0 74 0e c1 bd 1f a2 9a bd 9e 01 e8 3b 47 f0 eb bc
       -0.09426585 -0.075504534 0.007080271 -0.028801097
0001c0 ca 2a 1d be 7a c9 70 3b a2 aa db 3b 4d 0a e4 bd
       -0.15348354 0.0036741183 0.0067036906 -0.11134777
0001d0 e7 a1 6c 3d bf 9c 0d be 6e c6 1f be 37 ff 7a bd
       0.05777159 -0.13829325 -0.15603039 -0.061278548
0001e0 41 e7 03 be 3a c7 bb 3d 8b d2 e3 3d 85 3d 82 3d
       -0.12881185 0.09168859 0.11124142 0.0635939
0001f0 81 f1 d9 bc e8 bf 84 bc c7 f9 4b bd 02 96 1a be
       -0.026604416 -0.01620479 -0.049798753 -0.15096286
000200 a5 ab 01 3e a9 b8 48 3e 65 c3 88 3c 73 a5 38 3e
       0.12663133 0.19601692 0.016694734 0.18031864
000210 85 1f 0b be 4e c3 b7 3c ed 51 c1 3c 65 5c 96 bd
       -0.13586242 0.022431996 0.023598636 -0.073418416
000220 a2 87 08 be be b9 93 bc ed f0 2b 3b 6a 94 11 be
       -0.1333299 -0.018032905 0.0026236132 -0.14216772
000230 31 6e 35 3d 3e 3d 22 bd d8 c0 39 3e 42 79 f4 3d
       0.04429454 -0.039609186 0.1813997 0.119371906
000240 08 ee b5 3d 06 41 14 3e e4 9f bf 3c 84 bf 97 bd
       0.088832915 0.1447793 0.023391671 -0.074095756
000250 7c b4 16 3d 6a bf 47 3d f2 bf 0a 3d 2c a6 a9 3d
       0.036793217 0.04876653 0.03387446 0.08283648
000260 b5 00 45 bd 33 84 f3 bd dd 24 b1 3d 91 5f ce bb
       -0.048096377 -0.118904494 0.08649609 -0.0062980135
000270 87 ee 46 bd a6 b8 87 bd 9e 3d ca 3d 4c c1 1a bd
       -0.04856732 -0.06627016 0.09875034 -0.037782
000280 f1 37 33 be 61 af 8a bc 4b 67 31 bd 8f 78 f2 bd
       -0.17501809 -0.01692933 -0.0433114 -0.11839401
000290 7d f8 e5 bd 10 e7 5d be 2a 24 12 be 90 7e b5 bd
       -0.11229036 -0.21670175 -0.14271608 -0.088620305
0002a0 a8 02 24 3d f1 c0 a9 bd 12 65 ec 3c 43 b6 c9 3d
       0.040041596 -0.08288754 0.028856788 0.09849217
0002b0 68 40 07 bd f8 8c ad bd e6 03 d4 bd fd 36 e7 bd
       -0.033020407 -0.08474153 -0.10352306 -0.11289785
0002c0 d5 07 38 3e 3b 30 9f 3d a6 fa 39 3e f4 a5 09 bd
       0.17971738 0.07772871 0.18162021 -0.03360553
0002d0 47 e9 b6 bd 9e f3 07 3e e7 31 b7 3d 83 c0 84 bd
       -0.08931213 0.13276526 0.08945065 -0.06482031
0002e0 1f b6 07 be 5a ee 24 3d 61 76 f9 bc 17 b1 86 bd
       -0.13253067 0.040266372 -0.030451955 -0.06576746
0002f0 c0 00 d5 3d e5 d8 74 3e ee f9 d7 3d 51 f7 4f 3e
       0.10400534 0.23910864 0.10545717 0.20309187
000300 73 22 8f 3d c8 56 10 3e 4c 72 5f 3d 18 62 46 3e
       0.069889925 0.14095604 0.05455236 0.19373357
000310 40 bf dd bc 60 80 31 3d b0 57 19 bc 3e 03 f2 3c
       -0.027068734 0.04333532 -0.009359285 0.029542562
000320 53 c2 00 3d 53 e7 4a 3d d8 ff f8 bd a9 2c 4b bd
       0.031435322 0.049537014 -0.12158173 -0.049603138
000330 78 44 a2 3d 47 bf b5 bd 32 35 e7 3c 9f 6c 3c bd
       0.07923216 -0.08874374 0.028223608 -0.046002027
000340 52 b3 06 be e6 70 f6 bd 1e 36 06 be f5 95 ac 3d
       -0.13154343 -0.120332524 -0.13106582 0.084270395
000350 8e b3 f0 bd c5 63 62 3d 00 32 b3 3c e9 31 4f 3d
       -0.11752997 0.05527093 0.021874428 0.050584707
000360 8f 82 3f 3c be 9b df bd 70 1f e0 bc a1 99 0b bd
       0.011688842 -0.10918377 -0.02735874 -0.03408206
000370 87 36 c1 bd 0e 97 4f bd b2 2d 93 3b ad ae 3c bd
       -0.094342284 -0.050681166 0.0044915313 -0.04606502
000380 ea ab da bd af ef 63 bd 93 ba e8 bd a5 de b7 bd
       -0.10677321 -0.055648502 -0.11363711 -0.08978013
000390 28 30 21 3d 07 f6 71 bd 30 66 36 3d 40 53 25 be
       0.039352566 -0.05907252 0.044531047 -0.16145039
0003a0 e0 a2 39 3c 14 20 03 bc 50 3c d1 3b a0 1c a4 bd
       0.011330336 -0.0080032535 0.0063853636 -0.08013272
0003b0 7a 8c b2 3d 1e 66 1d 3d 51 c7 20 3c e2 59 16 3d
       0.087182 0.038427465 0.009813146 0.036706813
0003c0 16 8a 28 3d 5e f3 b1 bd 21 94 d5 3d 3c 1b b1 3d
       0.041147314 -0.08688997 0.10428644 0.08647773
0003d0 9c c9 c6 bc 11 8c cf 3c 38 79 db 3d ce 4c af bd
       -0.024266057 0.025335344 0.1071648 -0.08559571
0003e0 5a 8b de bd aa 6f 1d 3d 65 b3 13 bc 33 b3 10 3d
       -0.10866423 0.03843657 -0.009014939 0.035327148
0003f0 c1 68 5a 3d 30 1b 7f 3d 6d 19 d6 3d 9e 28 3d 3e
       0.053322557 0.062281787 0.10454068 0.18472525

bias f4 [16]
000000 d1 a0 5d 3c de fd 8b 3e 44 96 39 3d 7a 42 06 be
       0.013527111 0.27342123 0.04530932 -0.13111296
000010 85 aa b1 bd 97 35 79 bd b9 3b 8b 3e 7d d9 4d 3e
       -0.08675102 -0.060842123 0.27194002 0.20102496
000020 0f ec ce 3d 5d 32 8c bd 1f 4d 77 bd 62 b0 78 bd
       0.10103618 -0.068455435 -0.060376283 -0.060715087
000030 f8 58 db 3d 08 7a a5 3d 23 d4 b5 3d 6a bc 0f 3e
       0.10710329 0.08079916 0.088783525 0.14036718

weight f4 [128, 576]
000000 31 5a 0b bd b0 c0 2e 3b f1 d7 29 3c f2 b7 6a 3c
       -0.03402156 0.0026665144 0.010366426 0.014326083
000010 ea 10 24 3d 81 b1 03 3c 8a 79 a6 bc 81 ed 0c 3d
       0.040055193 0.008037926 -0.020321626 0.03440619
000020 58 14 93 3c 7c 29 c4 3c 69 e8 58 bc b5 5a 13 bd
       0.017954037 0.023945563 -0.013239005 -0.035975177
000030 7a 27 b8 bc 69 0c f2 bc 7a 61 92 bc f2 8e 1b 3d
       -0.022479761 -0.029546933 -0.017868746 0.03797812
000040 23 fc 9c bb 9a cc 98 3c 81 36 d3 3c 91 23 86 bc
       -0.004790799 0.01865225 0.025782825 -0.016374381
000050 44 73 a1 ba c9 65 dc bc ae be f9 bc 71 93 b1 3b
       -0.0012317677 -0.026904004 -0.030486431 0.0054191877
000060 ca a7 1c 3d 7e ca 0a bd 2d 3e 6f 3c e3 ea bc bc
       0.038245954 -0.033884518 0.014602226 -0.023061221
000070 00 64 4d bc 6a 8b f1 bc 70 6e 56 3c 80 27 cd 3c
       -0.012536049 -0.029485423 0.013087854 0.02504325
000080 fe ff 01 bd f6 3e d8 bc 6a a4 19 3d 68 5a 9b bc
       -0.031738274 -0.02639721 0.037510313 -0.018964007
000090 45 a0 b4 3c 69 ce 09 3d b2 25 da bc bf 85 d0 bc
       0.022049079 0.033644114 -0.026629303 -0.0254544
0000a0 33 9f ac 3c 9a 05 ee bc 93 38 19 3d ed 7b b8 3c
       0.021072006 -0.029055405 0.03740747 0.02252003
0000b0 28 82 28 3d 7e 7d 51 3a ca b3 a2 3c 03 88 bc 3c
       0.04113975 0.0007991417 0.01986112 0.023014074
0000c0 d8 b7 c3 bb 56 26 8a bc 11 2f 3d 3c 7a 24 85 3c
       -0.0059728436 -0.016863983 0.011546866 0.016252745
0000d0 a8 41 bb bb 70 8b ff 3c 10 6d 64 39 47 27 fa bb
       -0.005714614 0.031194419 0.00021784403 -0.0076340768
0000e0 9f 79 04 bc 22 c9 54 bc 99 84 1c bd d4 92 22 bc
       -0.008085637 -0.012987407 -0.038212392 -0.009922702
0000f0 e0 cd f6 bc 2b 41 a1 3c 27 9c 94 3c c4 5f 9b 3c
       -0.030127466 0.019684395 0.018140865 0.018966563
000100 32 91 9b 3b 35 48 19 bd c0 98 ba bc 7a 6e 1a 3c
       0.0047475332 -0.037422378 -0.022777915 0.009425754
000110 0d db 14 bd 00 d2 89 3c 34 87 8b 3c bf 7e e0 3b
       -0.036341716 0.016823769 0.017032243 0.006851047
000120 35 27 e8 bc d5 ee 9d 3b 8a 41 58 bc 73 4f 0d 3d
       -0.028339008 0.0048197308 -0.0131992195 0.034499597
000130 cd 74 ee bc dc 66 06 bd e9 6d fc 3b f3 e9 32 bc
       -0.02910843 -0.032812938 0.007703532 -0.010920036
000140 e1 df 87 3c 3d 62 20 3c bd 50 b8 bc 4e 9b ed bc
       0.016586246 0.009789047 -0.022499437 -0.02900472
000150 0d 40 1d bd 34 0c aa bc ae 83 ff bc 58 c2 f9 bc
       -0.03839116 -0.020757772 -0.03119072 -0.030488178
000160 a6 ce 19 3d 10 65 2b bc a7 66 b7 bc 35 ad 7e bc
       0.03755059 -0.010461107 -0.022387816 -0.015544225
000170 94 83 67 3a b1 dc e9 3c 59 10 8b 3b 4a 96 99 bc
       0.00088315574 0.028547617 0.004243892 -0.018748421
000180 6e e9 a7 3c 52 ef 26 3d 7a 1d e8 3b c0 17 a0 bc
       0.02049705 0.040755577 0.007083592 -0.019542575
000190 c8 02 93 3c d7 01 03 bd bc 0d 88 bc c2 19 38 bc
       0.017945662 -0.031984176 -0.016608112 -0.01123661
0001a0 59 52 b6 bb 4d b9 22 3c c4 d7 5e bc 6a ee ab bc
       -0.005564016 0.009931874 -0.013601247 -0.020987708
0001b0 42 c9 1f 3d 5d b7 b7 3c 6a ce d5 bc 30 9d f0 bc
       0.039010294 0.022426302 -0.026099402 -0.029371828
0001c0 d5 38 d3 3c da 29 06 bd 4c 6f bc 3c 32 00 48 3c
       0.025783936 -0.032754757 0.02300229 0.012207078
0001d0 e9 5c b2 3c d1 e1 8d bc f0 a1 29 3c 0d 36 7b bc
       0.021772819 -0.017319592 0.01035355 -0.015332711
0001e0 21 59 03 bd 9b 8e 1d bd 13 90 60 bc 32 27 08 bd
       -0.03206742 -0.038466077 -0.013706225 -0.033240505
0001f0 56 19 1b bd e0 38 da bb 98 fa b8 3a 58 53 56 bc
       -0.03786596 -0.006659612 0.0014112769 -0.013081394
000200 1c 32 f7 bc 00 c8 08 3c b2 3d 70 3c 50 e1 f6 bc
       -0.030175261 0.008348465 0.014663147 -0.030136734
000210 03 e5 00 3d 9a e3 1d 3d 36 27 22 3d 01 f4 fe 3b
       0.031468403 0.038547136 0.039588176 0.0077805524
000220 d2 da 37 bc ea f8 7c b8 9d 0d e3 bb 54 b5 e4 bb
       -0.011221604 -6.03133e-05 -0.006929113 -0.006979624
000230 1f db 04 3d 9a ac 38 3b df ea c9 3a ee 11 06 3d
       0.032435533 0.002817905 0.001540508 0.032731943
000240 c7 28 94 3b 62 07 a8 3c 7d c8 ca 3c 98 71 84 3c
       0.0045214626 0.020511333 0.024753803 0.016167447
000250 05 d5 f1 bb 66 eb 24 bd 34 9e 38 bc d2 8d d8 bb
       -0.0073801302 -0.040263556 -0.011268187 -0.006608703
000260 c7 25 f5 bb bc e3 98 3a 6f 02 01 3c b9 eb e3 3c
       -0.00748131 0.001166455 0.007874115 0.027822362
000270 a0 2c da bc 71 3d 16 bb 51 b5 22 bd ce ab 38 bc
       -0.026632607 -0.0022924806 -0.039723698 -0.01127143
000280 13 a8 83 bc 9e 6f 82 3c b9 2c c1 bc 2b 1f 63 bc
       -0.016071355 0.015922364 -0.023580896 -0.0138624115
000290 8e f3 0d bd 71 e6 a7 bc 21 6f fe 3b 48 25 cc 3c
       -0.0346561 -0.020495625 0.0077647124 0.02492012
0002a0 89 f5 93 3c 2a 88 8f 3c 38 2a ac 3c 03 e8 64 3b
       0.018061416 0.017520983 0.021016225 0.0034928329
0002b0 aa e3 fb bc 44 5d b4 bc 4b 7b 24 3d b9 b6 ba bb
       -0.030748207 -0.022017129 0.040156644 -0.005698052
0002c0 f1 31 4b bc bf e5 e5 ba 4c d3 0e bc a0 dd b0 bc
       -0.012402044 -0.0017539783 -0.008717369 -0.021590054
0002d0 7f 25 a1 3a 22 92 01 3d c5 8c ff bc 59 04 9d bc
       0.00122945 0.031633504 -0.031195054 -0.019167112
0002e0 41 07 e7 bc 65 63 80 3b 88 3b 99 3c cb 71 ce 3c
       -0.028201701 0.0039180988 0.018705145 0.025200745
0002f0 fd 94 11 3d 5d 21 fd 3c 48 53 70 3c ef cb 41 bc
       0.035542477 0.030899698 0.014668293 -0.011828407
000300 9c b6 0b 3c 39 4d 14 3c 39 d3 d8 bc b8 2f 9c bc
       0.008527424 0.009051614 -0.026467906 -0.019065723
000310 db 9c d7 bb 13 71 17 3d e5 a0 30 3c f2 65 46 3c
       -0.006579978 0.03697307 0.010780548 0.012109267
000320 41 2b fe bc 16 cc 03 3c 6c 26 1e 3c 2f 57 e1 3c
       -0.031026484 0.008044263 0.009652715 0.027507393
000330 0e 92 21 3d 19 3c b3 bc 45 25 fc bb a3 e9 19 3d
       0.03944593 -0.021879243 -0.0076948726 0.03757633
000340 0d 02 e9 3c 80 3f 0a bd c4 50 12 3d d2 35 31 3c
       0.02844336 -0.033751965 0.035721555 0.010816054
000350 02 2b 1b bc d1 39 c4 bc a5 d7 cb bc 08 95 98 bc
       -0.009470703 -0.02395335 -0.0248831 -0.018625751
000360 bc 18 3d 3c 8e 7e 5c 3c bc ce 44 bc 1e e5 5f bc
       0.011541542 0.013457907 -0.01201218 -0.013665466
000370 05 91 1a bd ce cb a9 3c fc 54 49 3c f7 38 f1 3c
       -0.037735958 0.020727064 0.012288328 0.029446108
000380 17 21 87 3c 12 95 83 3c 0b c4 97 bc 78 5f a6 3c
       0.01649527 0.016062293 -0.018526098 0.020309195
000390 e6 e2 e1 3c ea 26 80 bc 3a c7 0e bd ab 66 2b bc
       0.027574014 -0.015643556 -0.034857966 -0.01046149
0003a0 35 78 0c 3d 6e d2 9c 3b b2 36 d2 3c 51 71 ee bc
       0.034294326 0.0047858274 0.025660846 -0.029106768
0003b0 73 68 87 bb 68 79 66 3c d6 60 cc bc af f4 d5 bc
       -0.0041323244 0.014067031 -0.024948519 -0.02611765
0003c0 15 6c 1b bc b6 ed a5 bc 79 aa 2c bd 1a 92 27 3d
       -0.009486218 -0.020254951 -0.042154763 0.040910818
0003d0 32 90 17 bd da a3 60 3c f7 e1 39 bc 7f 20 0c 3d
       -0.03700275 0.01371094 -0.011345378 0.03421068
0003e0 0e 60 d1 3c 5a e2 0b bc 42 e1 96 3b a0 77 05 3c
       0.025558498 -0.008537853 0.0046044895 0.008146197
0003f0 bb f7 3b 3b ab 59 d2 3c 5c cb 27 3d 92 03 6d 3b
       0.0028681594 0.025677523 0.040965423 0.0036165458

bias f4 [128]
000000 95 56 2d bd 91 6d 28 3d d8 8a 9a b9 66 08 a9 3c
       -0.0423189 0.041120116 -0.00029476616 0.020633887
000010 c1 e4 2c 3d 3e a4 55 bb bb 3d fc bb c5 85 15 bd
       0.042210344 -0.0032599117 -0.0076977885 -0.036504526
000020 13 09 43 bd b9 70 37 bc 34 14 04 3d 07 62 16 bd
       -0.047616076 -0.011196309 0.03224583 -0.03671458
000030 ab 6d f2 bc 02 b7 64 3c c5 1a 8d 3c 94 46 85 bb
       -0.02959331 0.013959648 0.017224679 -0.0040672515
000040 db 3e a8 3d ef a4 cd 3d 1b 70 e1 3c 0b 6f 62 3d
       0.08215114 0.10041224 0.027519276 0.05528168
000050 90 3d 15 3d 72 6f 35 bd b7 a3 29 bd 93 79 6f 3c
       0.036435664 -0.044295736 -0.041415896 0.014616388
000060 ab d8 96 bc bb 48 ee bb c2 67 23 3d 9c fe 1b 3d
       -0.018413862 -0.0072718537 0.039893873 0.03808461
000070 ce 3d a3 3b 89 d3 32 3b 3b fe 87 3c 84 e5 8a 3d
       0.004981733 0.002728673 0.016600719 0.06782058
000080 7f 2c e8 ba bb ba 06 bc 11 a6 bd bc 3a 79 76 3d
       -0.0017713456 -0.008223231 -0.023150476 0.060174204
000090 da 8e 8a 3d 32 e8 fa b9 06 cc 0b 3d 6c 8b bd 3a
       0.06765528 -0.00047856715 0.03413012 0.0014461107
0000a0 f2 e6 33 3c 5c bb 77 3d 24 bc f8 3b 74 d3 e1 bc
       0.010980355 0.060481414 0.0075907875 -0.027566649
0000b0 6c 4f e1 bc 44 40 e2 3b 02 80 2e bc 93 c2 99 bb
       -0.027503692 0.0069046337 -0.010650637 -0.0046923845
0000c0 ce 8d 1a 3d 34 10 c9 3b 90 2a 27 3c f6 19 a2 bc
       0.03773289 0.0061359648 0.010203019 -0.01978777
0000d0 63 80 ca bc fe ac 18 bc 1d 29 03 3d 73 04 1b 3d
       -0.024719423 -0.009318588 0.03202163 0.03784604
0000e0 ec d7 9b bc 47 32 85 3b 00 3e ac 3c 7a 5d aa bb
       -0.019023858 0.0040648314 0.021025658 -0.0051991316
0000f0 e6 b5 22 bd 9c b3 51 3d 81 48 25 bd 23 8d b5 3c
       -0.039724253 0.05119668 -0.04035235 0.022162026
000100 91 16 2a bd 4e 70 6d 3c da 1c 0c bd 9c 75 a1 bc
       -0.041525427 0.014492108 -0.034207202 -0.0197094
000110 03 38 e1 3c 07 45 87 3c b6 45 95 bc e0 f4 44 3c
       0.027492529 0.016512407 -0.018221717 0.012021273
000120 76 cd 3c 3c 5a cf e7 3c 6c f4 ce bc 72 78 2c bc
       0.011523595 0.028297115 -0.025263034 -0.010526763
000130 0d 76 2a bd da d9 f2 bb 5f 60 1a bc 19 dc 82 3c
       -0.04161649 -0.007411224 -0.009422391 0.015974091
000140 92 83 ab bc ee 28 d1 3c 77 10 cd 3b f0 30 e7 3c
       -0.020936761 0.025532212 0.0062580663 0.028221577
000150 81 75 4b 3c ed ee eb 3c c1 e3 59 3c 0d 82 10 3c
       0.012418152 0.028800452 0.01329893 0.008820069
000160 25 55 e8 3b 6a 1e 29 3c eb 37 4a 3d 3a 06 fb 3c
       0.007090228 0.010322193 0.049369734 0.030642617
000170 90 34 e4 bc 40 40 50 3c 35 0c a6 bc a7 da 81 bc
       -0.027857095 0.012710631 -0.020269493 -0.015851332
000180 bf 8d 34 3d 74 bb 31 3d 46 6a fb 3b b4 cb 32 3c
       0.044080492 0.04339166 0.007672581 0.010912824
000190 8d 81 70 3d 0e d3 54 bc d1 d6 55 3d 6b d3 7e 3c
       0.0587173 -0.0129897725 0.052206818 0.015553336
0001a0 90 7c df bc 1d cc c9 3b 85 7f c8 3c b1 c6 04 3d
       -0.027281076 0.0061583654 0.024474869 0.03241605
0001b0 1d 06 9e 3c 07 29 6b 3c 88 bd 0e bd 6d 38 6e 3d
       0.019290024 0.014353043 -0.03484872 0.05815928
0001c0 64 28 64 3d 98 ea de 3c 19 e1 a9 3c 00 f2 e5 3c
       0.055702582 0.027211472 0.020737218 0.028069496
0001d0 cb bd 1f 3d 89 b0 b2 bc d8 0d c2 bc 73 fa ec 3c
       0.03899936 -0.021812694 -0.023688242 0.028928017
0001e0 24 d7 01 3d 99 18 31 3c 55 78 84 bb 03 fc 4d 3d
       0.031699315 0.010809087 -0.004042665 0.050289165
0001f0 11 f7 15 bd cc 32 fe 3c 38 63 9a 3d 20 2b c6 bc
       -0.036612574 0.031030081 0.07538456 -0.024190485

weight f4 [128]
000000 9c fa 7f 3f bf 27 82 3f 22 6d 81 3f 00 f5 80 3f
       0.99991775 1.016838 1.011143 1.0074768
000010 59 b0 83 3f 56 d2 80 3f b1 ce 84 3f d2 fd 7f 3f
       1.0288192 1.006419 1.0375577 0.99996674
000020 55 07 83 3f ac 60 80 3f 97 d2 85 3f 0a 6f 80 3f
       1.0236613 1.0029502 1.0454892 1.0033886
000030 7b 15 80 3f e7 0e 80 3f c0 f2 7f 3f 89 3c 84 3f
       1.0006555 1.0004548 0.9997978 1.0330974
000040 ab 7d 87 3f 40 b1 89 3f fa 96 8b 3f f0 5c 82 3f
       1.0585226 1.0757217 1.0905449 1.0184612
000050 b1 52 81 3f 03 03 80 3f 75 a8 83 3f 4a 8d 80 3f
       1.010336 1.0000919 1.0285784 1.0043118
000060 7e 72 80 3f 12 ea 7f 3f 58 37 89 3f f6 f5 7f 3f
       1.003494 0.9996654 1.0720015 0.9998468
000070 fa 7c 81 3f 51 59 80 3f 80 b8 83 3f 9e 44 81 3f
       1.0116265 1.0027257 1.029068 1.0099065
000080 ef 25 80 3f 2c aa 83 3f d7 60 80 3f 95 d9 81 3f
       1.0011576 1.0286307 1.0029553 1.0144526
000090 0d c7 80 3f 67 f7 7f 3f 23 1b 83 3f a2 ac 81 3f
       1.0060745 0.9998688 1.0242656 1.0130808
0000a0 7a d9 7f 3f 85 22 82 3f d9 5f 80 3f 5c bb 81 3f
       0.9994122 1.0166785 1.002925 1.0135303
0000b0 10 fe 7f 3f bf 57 80 3f f7 3f 89 3f 8a 8e 80 3f
       0.99997044 1.0026778 1.0722646 1.00435
0000c0 f1 1c 81 3f 08 6e 82 3f f7 78 83 3f d3 d7 7f 3f
       1.0086957 1.0189829 1.027129 0.99938697
0000d0 07 16 80 3f f5 30 82 3f ec c8 81 3f 84 cc 83 3f
       1.0006722 1.017119 1.0139441 1.0296788
0000e0 24 6d 80 3f 3a 17 81 3f 62 c2 7f 3f 15 8a 80 3f
       1.0033307 1.0085213 0.9990598 1.0042139
0000f0 ae d8 80 3f c9 5a 81 3f 6d a8 80 3f c6 ef 7f 3f
       1.0066125 1.010583 1.00514 0.9997524
000100 e6 de 80 3f 6c 66 84 3f 0d 88 80 3f 55 7e 81 3f
       1.0068023 1.0343757 1.0041519 1.0116678
000110 c7 fe 7f 3f 40 a8 85 3f b8 07 80 3f ba 77 80 3f
       0.99998134 1.0441971 1.0002356 1.0036538
000120 aa ab 80 3f f1 0d 81 3f 44 17 80 3f 81 25 80 3f
       1.0052388 1.008238 1.00071 1.0011445
000130 b2 4e 80 3f e3 30 80 3f 9c 20 80 3f 56 c0 80 3f
       1.0024016 1.0014919 1.0009952 1.0058696
000140 c6 6d 80 3f fd 34 80 3f 12 23 80 3f f3 ba 84 3f
       1.00335 1.0016171 1.0010703 1.0369552
000150 71 c0 7f 3f 97 f9 80 3f d3 ff 7f 3f 70 26 81 3f
       0.9990302 1.0076169 0.9999973 1.0089855
000160 87 e7 7f 3f 98 41 80 3f 53 a4 83 3f bf ad 81 3f
       0.9996266 1.0020018 1.0284523 1.0131148
000170 0a ea 7f 3f 0c d2 7f 3f 46 1d 84 3f 13 4a 80 3f
       0.9996649 0.9992988 1.0321434 1.0022606
000180 89 77 82 3f 02 09 80 3f d6 2f 80 3f 1f 94 81 3f
       1.0192729 1.0002749 1.0014598 1.0123328
000190 57 fa 81 3f de 98 80 3f cf 77 80 3f 3a 24 83 3f
       1.0154523 1.0046651 1.0036563 1.024543
0001a0 85 3f 82 3f da 9c 80 3f 36 fb 7f 3f 60 0d 80 3f
       1.0175635 1.0047867 0.9999269 1.0004082
0001b0 31 ec 82 3f a3 76 81 3f aa e7 83 3f 18 60 81 3f
       1.022833 1.011433 1.0305073 1.010745
0001c0 d5 d5 80 3f 63 44 80 3f c0 85 81 3f 6b 51 84 3f
       1.0065256 1.002087 1.0118942 1.0337347
0001d0 3d 28 82 3f 39 15 80 3f 08 50 80 3f 94 08 81 3f
       1.016853 1.0006477 1.0024424 1.0080743
0001e0 98 f0 80 3f 80 6b 80 3f 75 59 80 3f 3e 80 84 3f
       1.0073423 1.0032806 1.00273 1.0351636
0001f0 16 03 80 3f 9d 89 80 3f 45 0a 8c 3f 44 cc 81 3f
       1.0000942 1.0041996 1.0940634 1.0140462

bias f4 [128]
000000 4a ba d1 ba 31 36 03 3d cc 30 a0 3c f1 29 6d 3b
       -0.0016000953 0.032034103 0.019554518 0.003618833
000010 66 d7 6f 3c 93 cf c9 3c 75 bf a6 bc 9d 13 83 ba
       0.014638757 0.024635112 -0.020354966 -0.0010000352
000020 d3 79 25 bc 85 01 69 bc 68 22 c3 3c 72 04 54 3b
       -0.010099846 -0.014221554 0.023820117 0.0032351282
000030 26 aa 30 3b ff 96 1b bc 4c 50 11 bc 83 3c b3 3b
       0.0026956885 -0.0094964495 -0.008869242 0.00546986
000040 b0 54 29 3d 97 ae 87 3d 24 59 b7 3c 22 8b c6 3c
       0.04134053 0.06625097 0.022381373 0.024236266
000050 79 68 03 3d e7 f8 62 bc 15 34 37 bc 15 29 1d 3b
       0.032082055 -0.013853288 -0.011181851 0.0023980786
000060 9b af 53 bb b6 11 a0 b9 0e 07 5f 3d b3 db 64 bb
       -0.0032300714 -0.00030530774 0.054450087 -0.003492099
000070 ad 4a 80 bc 13 65 21 3c 81 57 a9 3c 74 d0 0c 3d
       -0.015660608 0.009850758 0.020671608 0.034378484
000080 bf 9e 90 3b df d5 c7 3c c3 3e 51 bc f4 cc f0 3c
       0.0044134553 0.024393974 -0.012771311 0.029394604
000090 99 ad 0f 3d a4 82 e1 39 43 b1 0a 3c 39 9b e2 3c
       0.035077665 0.0004301268 0.008465114 0.027661907
0000a0 83 6f e1 3c f4 ba d9 3c a4 86 91 3a 0e 6a 83 bb
       0.027518993 0.026578404 0.0011102748 -0.0040104454
0000b0 1f c1 82 39 ce e3 e7 3b 0b 35 ce bb 56 a4 d6 3b
       0.0002493942 0.007076717 -0.0062929443 0.006550352
0000c0 ee c9 ec 3b 84 cc 5b bc e8 01 97 3c b7 38 2f bc
       0.0072262203 -0.01341546 0.018433526 -0.010694674
0000d0 3d d4 df 39 78 7b 03 3c 72 cb 9e ba 14 c9 28 3c
       0.00042692004 0.008025043 -0.0012115075 0.010301847
0000e0 95 e2 ce bb 66 ad 18 3b 60 95 8a bc a2 bb 8b 3c
       -0.006313632 0.0023296713 -0.01691693 0.017057244
0000f0 0c 26 06 bc ff 25 50 3c c4 ec 80 bc f9 50 ea bb
       -0.008187782 0.0127043715 -0.015737899 -0.007150766
000100 1a b3 56 bb 43 9c e6 3c c6 9c 7c bb de c2 82 3b
       -0.0032760561 0.028150683 -0.0038545593 0.003990515
000110 c0 79 19 ba 85 1f 27 bc d7 e5 0a 3a 31 ba a2 bb
       -0.0005854629 -0.010200386 0.0005298531 -0.0049660434
000120 01 b4 86 3c 6e 76 77 3c 97 8b 80 39 4e 78 f5 3b
       0.016443254 0.015103919 0.00024518065 0.007491148
000130 5b 34 df bb 4e 8f 64 3b cd a9 ba 3c 24 8c 8e bb
       -0.006811661 0.0034875455 0.022786045 -0.004350202
000140 fa 30 a7 3c 22 a0 93 3b 00 32 0c 3c 41 4e 5a 3d
       0.020409096 0.0045051733 0.008556843 0.053297285
000150 93 4c 20 3a 9f 11 15 3c 2a 91 13 b8 bf 1c 4d ba
       0.0006114926 0.0090984395 -3.5182726e-05 -0.0007824413
000160 e2 48 95 bb d3 d0 b3 3a 4c b5 f9 3c 95 66 e0 3c
       -0.0045558074 0.0013718851 0.030481957 0.027392665
000170 61 4d ed bb 16 f1 85 bc 36 9d 48 bc ca 70 e8 bb
       -0.0072418903 -0.01635031 -0.012244513 -0.0070935236
000180 8f 3c 36 3c 96 c2 45 3b bd e8 77 bb c6 11 af 3c
       0.011122837 0.0030175797 -0.0037827932 0.02137078
000190 8e d6 20 3d 84 99 4e 3c 57 1c 46 3c 06 a8 21 3c
       0.039267115 0.012609843 0.012091718 0.00986672
0001a0 49 53 44 3c 71 e2 9b 3c e1 c2 1b bb 93 71 c8 bb
       0.011982747 0.019028874 -0.002376728 -0.0061170547
0001b0 ef a1 ce 3c 60 4a ac ba f7 2b 38 bc 2c fa 93 3c
       0.0252237 -0.0013144724 -0.011240951 0.018063627
0001c0 93 3b bc 3c d0 1c 39 3c 5c b0 80 bc a4 67 b7 3c
       0.022977626 0.011298373 -0.015709095 0.022388287
0001d0 b7 c1 3e 3d eb 4f 22 bb f4 be 8b ba 35 d9 ec ba
       0.04657146 -0.0024766873 -0.0010661767 -0.0018070104
0001e0 42 b8 4d 3b d7 d7 a9 3b 65 4b f6 3a 13 7c 1f 3d
       0.0031390344 0.005183201 0.001879078 0.038936686
0001f0 17 0d 72 bc 4b cf 0b 3d 47 ef a2 3d cf 53 68 bc
       -0.014773629 0.034133237 0.07955795 -0.014180138

running_mean f4 [128]
000000 00 00 00 00 00 00 00 00 00 00 00 00 00 00 00 00
       0.0 0.0 0.0 0.0
000010 00 00 00 00 00 00 00 00 00 00 00 00 00 00 00 00
       0.0 0.0 0.0 0.0
000020 00 00 00 00 00 00 00 00 00 00 00 00 00 00 00 00
       0.0 0.0 0.0 0.0
000030 00 00 00 00 00 00 00 00 00 00 00 00 00 00 00 00
       0.0 0.0 0.0 0.0
000040 00 00 00 00 00 00 00 00 00 00 00 00 00 00 00 00
       0.0 0.0 0.0 0.0
000050 00 00 00 00 00 00 00 00 00 00 00 00 00 00 00 00
       0.0 0.0 0.0 0.0
000060 00 00 00 00 00 00 00 00 00 00 00 00 00 00 00 00
       0.0 0.0 0.0 0.0
000070 00 00 00 00 00 00 00 00 00 00 00 00 00 00 00 00
       0.0 0.0 0.0 0.0
000080 00 00 00 00 00 00 00 00 00 00 00 00 00 00 00 00
       0.0 0.0 0.0 0.0
000090 00 00 00 00 00 00 00 00 00 00 00 00 00 00 00 00
       0.0 0.0 0.0 0.0
0000a0 00 00 00 00 00 00 00 00 00 00 00 00 00 00 00 00
       0.0 0.0 0.0 0.0
0000b0 00 00 00 00 00 00 00 00 00 00 00 00 00 00 00 00
       0.0 0.0 0.0 0.0
0000c0 00 00 00 00 00 00 00 00 00 00 00 00 00 00 00 00
       0.0 0.0 0.0 0.0
0000d0 00 00 00 00 00 00 00 00 00 00 00 00 00 00 00 00
       0.0 0.0 0.0 0.0
0000e0 00 00 00 00 00 00 00 00 00 00 00 00 00 00 00 00
       0.0 0.0 0.0 0.0
0000f0 00 00 00 00 00 00 00 00 00 00 00 00 00 00 00 00
       0.0 0.0 0.0 0.0
000100 00 00 00 00 00 00 00 00 00 00 00 00 00 00 00 00
       0.0 0.0 0.0 0.0
000110 00 00 00 00 00 00 00 00 00 00 00 00 00 00 00 00
       0.0 0.0 0.0 0.0
000120 00 00 00 00 00 00 00 00 00 00 00 00 00 00 00 00
       0.0 0.0 0.0 0.0
000130 00 00 00 00 00 00 00 00 00 00 00 00 00 00 00 00
       0.0 0.0 0.0 0.0
000140 00 00 00 00 00 00 00 00 00 00 00 00 00 00 00 00
       0.0 0.0 0.0 0.0
000150 00 00 00 00 00 00 00 00 00 00 00 00 00 00 00 00
       0.0 0.0 0.0 0.0
000160 00 00 00 00 00 00 00 00 00 00 00 00 00 00 00 00
       0.0 0.0 0.0 0.0
000170 00 00 00 00 00 00 00 00 00 00 00 00 00 00 00 00
       0.0 0.0 0.0 0.0
000180 00 00 00 00 00 00 00 00 00 00 00 00 00 00 00 00
       0.0 0.0 0.0 0.0
000190 00 00 00 00 00 00 00 00 00 00 00 00 00 00 00 00
       0.0 0.0 0.0 0.0
0001a0 00 00 00 00 00 00 00 00 00 00 00 00 00 00 00 00
       0.0 0.0 0.0 0.0
0001b0 00 00 00 00 00 00 00 00 00 00 00 00 00 00 00 00
       0.0 0.0 0.0 0.0
0001c0 00 00 00 00 00 00 00 00 00 00 00 00 00 00 00 00
       0.0 0.0 0.0 0.0
0001d0 00 00 00 00 00 00 00 00 00 00 00 00 00 00 00 00
       0.0 0.0 0.0 0.0
0001e0 00 00 00 00 00 00 00 00 00 00 00 00 00 00 00 00
       0.0 0.0 0.0 0.0
0001f0 00 00 00 00 00 00 00 00 00 00 00 00 00 00 00 00
       0.0 0.0 0.0 0.0
