vegetable.pt (torch, 390737 bytes, 21 tensors)

weight f4 [16, 3, 2, 2]
0	0xbdab9af0	-0.08379161
1	0x3e3db811	0.18527247
2	0x3e7464e7	0.23866616
3	0x3e4b0643	0.19826607
4	0xbec8e634	-0.3923813
5	0x3e7a2cd0	0.24431157
6	0xbe8ae751	-0.27129605
7	0xbe5a0d26	-0.21294078
8	0xbeb0a292	-0.3449903
9	0x3e023460	0.12715292
10	0x3e409bd0	0.18809438
11	0x3e51c54a	0.20485416
12	0x3e930d35	0.28721014
13	0x3de8febe	0.11376713
14	0xbd999143	-0.074984096
15	0x3e8a5f7b	0.2702597
16	0x3ea057b4	0.31316912
17	0x3dd25a02	0.10271074
18	0x3e27c413	0.1638339
19	0xbeaff51e	-0.34366697
20	0xbe7dcf95	-0.24786218
21	0x3e81027d	0.2519721
22	0xbed51830	-0.41620016
23	0x3e453599	0.19258727
24	0x3e48fb25	0.19627054
25	0xbd41c666	-0.047308348
26	0xbda290ab	-0.079377495
27	0x3e863177	0.26209614
28	0x3e9761fd	0.29566947
29	0xbe306bce	-0.17228624
30	0x3ee102e6	0.43947524
31	0xbdc2f9d8	-0.0952031
32	0xbf090151	-0.53517634
33	0xbea6a423	-0.325471
34	0xbef12c12	-0.47103935
35	0xbec5a971	-0.38605836
36	0x3e02113d	0.12701888
37	0xbd3532d9	-0.044237945
38	0x3e536edf	0.20647763
39	0xbcebb2df	-0.028771816
40	0x3e8e85de	0.27836508
41	0x3e63df0a	0.22253051
42	0x3ed18b5d	0.40926638
43	0xbe02918b	-0.12750833
44	0xbeaa49d8	-0.33259463
45	0xbdc69846	-0.096970126
46	0x3dec0178	0.11523718
47	0x3d4c7624	0.049917355
48	0x3ee0858b	0.43851885
49	0x3c11bb63	0.008894774
50	0x3ebe71e0	0.37196255
51	0x3e13eeb5	0.14446528
52	0xbec1c3d2	-0.37844712
53	0xbe173e1c	-0.14769787
54	0xbecf9b4f	-0.4054818
55	0xbe71c781	-0.23611261
56	0x3dc9574e	0.09831105
57	0xbacc797a	-0.0015600168
58	0x3e89c6bb	0.26909432
59	0xbc90ab19	-0.01765971
60	0xbde8d0a6	-0.113679215
61	0xbd903deb	-0.0704306
62	0x3d8703a5	0.06592492
63	0x3e255d74	0.16148931
64	0xbe904fd9	-0.2818592
65	0xbe9d0275	-0.30665937
66	0xbd63654e	-0.055516534
67	0x3d6dc90e	0.05805307
68	0x3dd1ce08	0.102443755
69	0xbd85942a	-0.06522401
70	0xbe1e1d74	-0.15440923
71	0xbe905aa6	-0.2819416
72	0xbdac44c5	-0.08411554
73	0x3e587c6c	0.21141213
74	0x3d805ca8	0.06267673
75	0x3db4f6db	0.088361464
76	0x3d66e93b	0.05637477
77	0x3c8a10d6	0.016853731
78	0x3e9b8560	0.30375195
79	0xbe90bace	-0.2826752
80	0x3e48242f	0.19545053
81	0xbd88ac84	-0.0667353
82	0x3ddb4bc4	0.107078105
83	0x3e5d0ff5	0.21588118
84	0x3e1fd660	0.15609121
85	0x3c54f07f	0.012996792
86	0x3ea53bb8	0.32272124
87	0x3e8cb573	0.27482185
88	0xbee27317	-0.44228432
89	0xbd92b7c6	-0.07163958
90	0x3db7b503	0.08970072
91	0xbea5f51c	-0.32413566
92	0x3e1ec7e1	0.15505935
93	0x3e3ec0de	0.1862826
94	0xbb897530	-0.004194878
95	0x3e59778c	0.2123701
96	0xbe392575	-0.18080695
97	0x3ccc6a81	0.024953129
98	0x3da61b71	0.08110703
99	0xbeb3928d	-0.35072747
100	0x3e582084	0.21106154
101	0x3cb1f5b3	0.021723604
102	0x3e1e10cf	0.154361
103	0x3e460b91	0.1934035
104	0x3d4c68ca	0.049904622
105	0x3e2df962	0.16989663
106	0xbe3b20fc	-0.18274301
107	0xbe5ef3f4	-0.21772748
108	0x3e280299	0.16407241
109	0x3e4f3892	0.20236424
110	0x3e89cfa4	0.2691623
111	0xbbc459b8	-0.0059921406
112	0x3e6e79fb	0.2328872
113	0xbd79bd20	-0.06097138
114	0xbe9eecae	-0.31039947
115	0x3e9af805	0.3026735
116	0x3d17cfc3	0.03706337
117	0xbe8a5202	-0.27015692
118	0xbeabe0cf	-0.33569953
119	0xbe5c93b3	-0.21540718
120	0xbdcc76aa	-0.09983571
121	0x3decf936	0.11570971
122	0xbe4ca59a	-0.19985047
123	0x3e1efd23	0.15526251
124	0x3de1efee	0.11032091
125	0xbd019955	-0.03164037
126	0xbe72902a	-0.23687807
127	0xbe2c3002	-0.16815189
128	0x3e265f36	0.16247258
129	0xbe0c4d5d	-0.13701387
130	0x3e4dedee	0.20110294
131	0x3e72ba03	0.2370377
132	0xbe8909fb	-0.26765427
133	0xbc6c3731	-0.0144174555
134	0x3d512fe9	0.05107108
135	0x3da7a4c1	0.08185721
136	0x3e907e2a	0.28221256
137	0xbdbb9953	-0.09160104
138	0x3e5eb836	0.21749958
139	0xbc454f50	-0.012042835
140	0xbe9984cc	-0.29984128
141	0x3e80492f	0.25055835
142	0xbe84a531	-0.2590728
143	0x3e891867	0.2677643
144	0x3e0323b2	0.12806585
145	0x3d7b1866	0.061302565
146	0x3e425b00	0.18980026
147	0xbe3f0f2e	-0.18658134
148	0xbe9f6e53	-0.31138858
149	0x3ce46807	0.027881635
150	0xbe8c4fd0	-0.27404642
151	0xbe5199af	-0.20468782
152	0xbd1b9dfa	-0.037992455
153	0x3e05ee20	0.13079119
154	0x3e733b4e	0.23753092
155	0x3e20dd50	0.15709424
156	0x3db8cf4f	0.09023916
157	0x3c85c917	0.016331239
158	0xbd53eb9d	-0.05173837
159	0x3dc13b02	0.09435083
160	0x3d4e9a68	0.050440222
161	0x3ea15666	0.3151123
162	0x3dc376ee	0.095441684
163	0x3e574231	0.21021344
164	0xbecfd509	-0.4059222
165	0x3e0cbf74	0.13744909
166	0xbe8dfce4	-0.27732003
167	0x3e3803da	0.17970219
168	0x3ee3a284	0.44459927
169	0x3e455ccc	0.1927368
170	0x3ea114e2	0.31461245
171	0x3dbe801e	0.0930178
172	0xbe83a317	-0.25710365
173	0xbe09b990	-0.13449693
174	0xbf11b230	-0.5691252
175	0xbe9bee89	-0.30455425
176	0x3e0d4e08	0.13799298
177	0x3e360c73	0.17778187
178	0xbe53d64d	-0.20687218
179	0x3ea0553c	0.3131503
180	0xbe2ab197	-0.16669308
181	0x3d461ca8	0.048367172
182	0x3e1fd678	0.15609157
183	0x3df61f51	0.12017692
184	0x3e7611aa	0.24030176
185	0x3d37256d	0.044713426
186	0xbe6f888e	-0.23391935
187	0xbde5bce9	-0.112176724
188	0x3e1f96e4	0.15584904
189	0x3dd2638d	0.10272894
190	0xbe61b6da	-0.22042409
191	0xbe45c575	-0.19313605

bias f4 [16]
0	0xbe219f36	-0.1578339
1	0xbe56ab8f	-0.20963882
2	0x3edf0968	0.43561864
3	0xbea03b5a	-0.31295282
4	0xbddf5c32	-0.10906257
5	0x3ee34209	0.44386318
6	0xbee653f3	-0.44985923
7	0xbd0d1174	-0.034440473
8	0x3e0784ed	0.13234301
9	0x3dfd45d7	0.123668365
10	0xbd205563	-0.03914393
11	0x3d8bde46	0.06829505
12	0xbd1db482	-0.038502224
13	0x3ca167be	0.019702788
14	0x3d66276a	0.056189932
15	0xbb937638	-0.0045001768

weight f4 [16, 16, 2, 2]
0	0x3d433760	0.04766023
1	0xbdb1c142	-0.08679439
2	0xbded87e7	-0.11598187
3	0x3d9666f8	0.073438585
4	0x3d61cc12	0.055126257
5	0x3b4512fd	0.0030071132
6	0xbe14bc56	-0.1452497
7	0x3d745b47	0.05965736
8	0x3e55248e	0.20814726
9	0x3daac26e	0.08337866
10	0x3e8728c7	0.26398298
11	0x3e8e6800	0.2781372
12	0xbe46288a	-0.19351402
13	0xbe20af8f	-0.1569197
14	0xbde16d6a	-0.11007197
15	0xbe10b389	-0.14130987
16	0x3d6963ae	0.056979828
17	0xbb2979d5	-0.002585997
18	0x3d30de4c	0.04318075
19	0x3e22f38f	0.15913223
20	0x3e4d8b6e	0.2007272
21	0x3dd9d22e	0.10635792
22	0x3e7618ed	0.24032946
23	0x3e7370d9	0.23773517
24	0xbdbacae2	-0.09120728
25	0xbe6b58cf	-0.22983097
26	0x3c06ebdc	0.008234944
27	0xbe18aed6	-0.14910445
28	0xbc8192d1	-0.015817078
29	0xbaf80425	-0.0018922134
30	0x3d557c45	0.052120466
31	0x3d24a755	0.040198643
32	0xbdcb7694	-0.09934726
33	0x3dfee1f3	0.1244544
34	0x3db294c5	0.08719782
35	0xbd629f68	-0.055327803
36	0x3dc33933	0.09532394
37	0x3da9472f	0.0826553
38	0xbcfb4eba	-0.030677188
39	0x3b36123d	0.0027781867
40	0x3d9f7d5b	0.077875815
41	0xbc834d8c	-0.016028188
42	0x3d89a5f1	0.06721104
43	0xbe108173	-0.14111881
44	0xbdddd5e0	-0.10831809
45	0x3d3b6ec9	0.04575995
46	0xbe089328	-0.13337386
47	0xbdd77026	-0.105194375
48	0xbc2c5e2f	-0.010520502
49	0x3de657f7	0.11247247
50	0x3dad7e9d	0.08471415
51	0xbc5f158e	-0.013615979
52	0xbdca6310	-0.09882176
53	0x3cb6d180	0.022316694
54	0x398db602	0.00027029222
55	0xbd9cb99b	-0.07652589
56	0x3e05bf3c	0.13061231
57	0x3e0a6a6d	0.1351716
58	0xbdd4def4	-0.103940874
59	0x3e6947a3	0.22781233
60	0x3dd5343b	0.10410353
61	0x3e32db05	0.17466362
62	0xbd8999f4	-0.06718817
63	0xbd976594	-0.07392421
64	0xbd5aecb5	-0.053448398
65	0x3e1a9c30	0.15098643
66	0xbd85caa8	-0.06532794
67	0x3c2746e2	0.010209771
68	0x3d82431e	0.06360458
69	0x3d0426d1	0.03226358
70	0x3cb80e6d	0.022467816
71	0x3de656a4	0.11246994
72	0xbe084b8e	-0.13310072
73	0xbe01bb5b	-0.12669127
74	0xbe26d875	-0.1629351
75	0xbe08532b	-0.13312976
76	0xbd841e42	-0.06451084
77	0x3e108e30	0.1411674
78	0xbe053298	-0.13007581
79	0x3d9d8a82	0.07692434
80	0xbd0c5eae	-0.03426998
81	0x3d6db897	0.058037367
82	0x3d8d5f5d	0.06902955
83	0xbd6fa018	-0.058502287
84	0xbe3e4557	-0.18581139
85	0x3c242b05	0.010020022
86	0x3d5ef7d4	0.054435566
87	0xbd87e54b	-0.06635531
88	0x3d0c2eea	0.03422443
89	0x3dbb1573	0.091349505
90	0xbd021266	-0.031755827
91	0xbd6d4d49	-0.057935033
92	0x3e453d72	0.19261721
93	0x3d557e2a	0.052122273
94	0x3e1328e6	0.1437107
95	0x3d41662b	0.047216576
96	0x3d8a38ec	0.06749138
97	0x3d8b3a3d	0.067982174
98	0x3de51726	0.11186056
99	0xbc7de731	-0.015497015
100	0x3d9548e2	0.07289292
101	0xbccc7763	-0.024959272
102	0xbcef6cd7	-0.029226704
103	0xbd7c5f67	-0.06161442
104	0x3e1c91b2	0.15289953
105	0xbd5dcb8d	-0.0541492
106	0xbdb5189b	-0.08842584
107	0xbdb0f5ef	-0.08640658
108	0xbc717074	-0.014736284
109	0x3d8decf2	0.06929959
110	0x3d83821d	0.064213015
111	0x3dbe3c56	0.09288852
112	0xbbc5de8e	-0.0060384935
113	0xbd9f10be	-0.07766865
114	0x3dbc3549	0.09189851
115	0x3d85a4b8	0.06525558
116	0x3e02a541	0.12758352
117	0x3d717d60	0.058957458
118	0x3e194580	0.14967918
119	0x3e0d0cec	0.1377446
120	0x3cbbee1e	0.022940692
121	0x3d751b47	0.059840467
122	0x3e53a1fc	0.20667261
123	0x3e388231	0.18018414
124	0xbdf00600	-0.117198944
125	0xbe14ff41	-0.14550497
126	0x3df50095	0.11963002
127	0xbd5dd460	-0.054157615
128	0xbe76b4cb	-0.24092405
129	0xbd9ad9d0	-0.07561076
130	0xbe2df591	-0.16988207
131	0xbdc34f8f	-0.09536659
132	0xbc381502	-0.011235477
133	0x3e3e8bf6	0.18608078
134	0x3d8dbed8	0.06921166
135	0x3d2b13d6	0.041766964
136	0x3e2ea42b	0.17054813
137	0x3e88a17c	0.26685703
138	0x3e764378	0.24049175
139	0x3d9fae3a	0.07796903
140	0x3d3768ff	0.044777866
141	0x3dc6cb71	0.09706772
142	0x3e1fbb97	0.15598904
143	0x3ddd750d	0.10813341
144	0xbe8ac730	-0.27105093
145	0xbe4201a8	-0.18945944
146	0xbe9a0a66	-0.30086058
147	0xbe4974de	-0.19673488
148	0xbdd4f110	-0.103975415
149	0xbd654381	-0.05597258
150	0xbded3fa6	-0.115844056
151	0x3d043082	0.032272823
152	0xbdc59f30	-0.09649503
153	0x3dd27994	0.102770954
154	0x3cc0d0fd	0.023537153
155	0x3c24458f	0.01002635
156	0xbe8ee2f1	-0.27907518
157	0xbe46ed5b	-0.19426481
158	0xbe380785	-0.17971618
159	0x3d22b2db	0.03972135
160	0x3e41333c	0.188672
161	0x3d0fa163	0.03506602
162	0x3e5cdbd4	0.21568233
163	0x3e529d12	0.2056773
164	0x3bd8f4dd	0.006620987
165	0x3d890f95	0.06692425
166	0xbc6b09d4	-0.014345605
167	0xbdda362f	-0.10654866
168	0xbdbc6186	-0.091982886
169	0xbcf1cb7a	-0.02951597
170	0xbe0bf426	-0.13667354
171	0xbcaa1b7f	-0.020765064
172	0xbce09ac5	-0.02741755
173	0x3e5816c7	0.21102439
174	0x3dc5d385	0.09659485
175	0x3dd6f24d	0.10495434
176	0xbe335936	-0.175145
177	0xbcdf3868	-0.027248576
178	0xbe78ad0d	-0.24284764
179	0xbe459b9c	-0.19297642
180	0x3d0fa7b6	0.03507205
181	0x3d9ffbe3	0.078117155
182	0x3db8f8f2	0.090318576
183	0x3e49393c	0.1965074
184	0xbeb837fd	-0.35980216
185	0xbe573812	-0.21017483
186	0xbe5d16ce	-0.2159073
187	0xbe16104b	-0.14654653
188	0x3c85912f	0.01630458
189	0x38bbaba4	8.9488254e-05
190	0xbc8dcb99	-0.017308997
191	0xbd4733c6	-0.04863336
192	0x3bdf4f1d	0.006814851
193	0x3c80ac5c	0.015707187
194	0x3dcaad5c	0.09896347
195	0x3d887688	0.06663233
196	0x3d1da6e5	0.03848924
197	0xbd9913c8	-0.07474476
198	0xbd96d8e6	-0.07365589
199	0x3d44e21a	0.04806719
200	0xbd7bcd82	-0.061475284
201	0xbdba8d87	-0.091090254
202	0xbc68d43d	-0.014210758
203	0x3c4821ce	0.012215091
204	0xbe25fc05	-0.16209419
205	0xbde70a10	-0.11281216
206	0xbe1dd920	-0.15414858
207	0xbe0034a5	-0.12520082
208	0xbdc34409	-0.09534461
209	0x3d8ae7c0	0.06782484
210	0x3d5e88d7	0.05432972
211	0xb8f680d7	-0.000117541924
212	0x3dbeaf35	0.09310762
213	0x3d891023	0.06692531
214	0xbd3370ad	-0.043808628
215	0x3e08527c	0.13312715
216	0xbd4d6c66	-0.050152205
217	0xbe08bc02	-0.1335297
218	0x3d7b55f2	0.06136126
219	0xbd9eb73b	-0.07749792
220	0xbd56dddf	-0.052457687
221	0xbc980752	-0.018558178
222	0x3d19e9b1	0.03757638
223	0x3e14864b	0.14504354
224	0x3d2f140b	0.042743724
225	0xbc94cfdf	-0.018165527
226	0xbcbaf312	-0.022820983
227	0x3d997ad0	0.07494128
228	0xbdfd7b7f	-0.12377071
229	0xbd479176	-0.048722707
230	0xbe133280	-0.14374733
231	0x3cfc17d4	0.03077308
232	0x3ad9b670	0.0016610157
233	0x3dc23548	0.09482819
234	0x3bbd6f75	0.005781109
235	0x3d7cedc8	0.061750203
236	0x3d9beb8c	0.076132864
237	0x3d986d3f	0.07442712
238	0xbc1ef7aa	-0.009702602
239	0x3dd06806	0.10176091
240	0x3ceeee17	0.029166264
241	0xbd0f5c99	-0.035000417
242	0xbd034c8e	-0.03205543
243	0x3d22d5d5	0.039754707
244	0xbd08df71	-0.033416215
245	0xbdd352c4	-0.10318521
246	0xbdcfd150	-0.10147345
247	0xbdc00874	-0.09376612
248	0xbb0141f7	-0.0019723156
249	0xbcf5b3bd	-0.029992932
250	0x3d69fe0f	0.057127055
251	0xbd8e9778	-0.06962484
252	0xbd8163cc	-0.06317863
253	0xbd1c676d	-0.038184572
254	0x3d79d9ae	0.06099861
255	0xbd5a215b	-0.053254467

bias f4 [16]
0	0x3e81d5ff	0.2535858
1	0x3cac2864	0.021015354
2	0xbdc5b3dd	-0.09653447
3	0x3e9350b0	0.28772497
4	0x3dd199b4	0.10234395
5	0x3d74b147	0.059739377
6	0xbdba8bdf	-0.091087095
7	0x3e86baad	0.26314297
8	0x3e0db5fb	0.13838951
9	0x3e104808	0.14089978
10	0xbe3f1bcb	-0.18662946
11	0x3d7e3eb7	0.06207153
12	0x3ddb5aed	0.10710702
13	0xbe5fe518	-0.21864736
14	0xbcd104b2	-0.025514934
15	0x3d9d4a6d	0.07680211

weight f4 [16, 16, 2, 2]
0	0x3e4b2584	0.1983853
1	0xbe01cc3a	-0.12675563
2	0x3df567e4	0.11982706
3	0x3de74db8	0.112941206
4	0x3d8208d2	0.063493386
5	0x3e2468d8	0.1605562
6	0x3c822767	0.01588793
7	0x3df7c4ca	0.120980814
8	0x3dedc1ec	0.11609253
9	0x3d95d14a	0.07315309
10	0xba0ba9a9	-0.00053277105
11	0x3d1fa73c	0.038977847
12	0x3c07a606	0.008279329
13	0xbdde73f7	-0.10861962
14	0xbe0c8623	-0.13723044
15	0xbe3153e0	-0.17317152
16	0xbcd9b12e	-0.026573744
17	0xbd82e7a9	-0.06391842
18	0xbdc0f853	-0.09422364
19	0x3da36bc1	0.07979537
20	0xbdb9ae31	-0.090664275
21	0xbd8386b9	-0.06422181
22	0xbd2b6a8c	-0.041849658
23	0xbe33a55e	-0.17543551
24	0x3e1bd804	0.15219122
25	0x3dbf7b4d	0.0934969
26	0x3e007de2	0.1254802
27	0x3dcf8d1d	0.10134337
28	0xbe669ef1	-0.22521569
29	0xbdf67236	-0.12033503
30	0xbe053f76	-0.1301249
31	0xbe52c858	-0.20584238
32	0xbd6b1d78	-0.05740115
33	0xbb7c70ff	-0.00385195
34	0xbd83f1ab	-0.06442579
35	0xbc90a236	-0.017655473
36	0xbe003531	-0.12520291
37	0x3dbf372b	0.09336694
38	0x3cdd2809	0.02699663
39	0xbc95769c	-0.018245034
40	0x3e12430b	0.14283387
41	0x3e01ed8a	0.1268827
42	0xbccaf05f	-0.024772821
43	0x3dd45732	0.10368194
44	0xbd9b93b1	-0.07596529
45	0xbdba046f	-0.09082877
46	0x3ce27326	0.027642798
47	0xbd8df22b	-0.069309555
48	0x3d4e6bcc	0.05039577
49	0x3e12f1eb	0.14350097
50	0x3ca912ba	0.020638812
51	0xbd0cba4a	-0.034357347
52	0x3cbf26b8	0.023333892
53	0x3d1a1c31	0.03762454
54	0x3ca48ffb	0.020088186
55	0x3ddcc954	0.10780588
56	0x3d76ea53	0.060282063
57	0x3d5d09c6	0.0539644
58	0xbd90773e	-0.07053994
59	0x3cf1b1ad	0.029503668
60	0xbd1578ec	-0.036492273
61	0x3ca4e452	0.020128403
62	0x3bee93c9	0.007280801
63	0xbdb1569e	-0.08659099
64	0x3d67a24f	0.056551274
65	0xbe58c7dd	-0.21169992
66	0x3daa873e	0.08326577
67	0xbda9532f	-0.08267819
68	0x3d83e455	0.06440035
69	0x3cdd2d7e	0.026999231
70	0xbd718132	-0.0589611
71	0x3ce89dc7	0.028395547
72	0xbcfdc4e8	-0.030977681
73	0x3dbdacfd	0.092615105
74	0x3e89db54	0.26925147
75	0x3e016e24	0.12639672
76	0xbde472f1	-0.11154736
77	0x3d8eb260	0.06967616
78	0xbe0eac39	-0.13932885
79	0xbd94d550	-0.07267249
80	0xbd7f8c8b	-0.06238989
81	0x3e41dd17	0.18931995
82	0xbd83e92e	-0.0644096
83	0xbd17fd7e	-0.037106983
84	0x3dceb8da	0.100938514
85	0x3e354859	0.1770338
86	0x3c152532	0.009103106
87	0xbd3312be	-0.043719046
88	0x3c96d206	0.018410694
89	0x3d07d667	0.033163454
90	0x3c0c3365	0.008557175
91	0x3dfa5152	0.12222542
92	0xbe02d324	-0.12775856
93	0xbcd7aab2	-0.026326511
94	0x3d8b72a6	0.06808977
95	0xb97b3543	-0.00023957067
96	0xbd223cb6	-0.03960868
97	0x3d79813a	0.060914256
98	0xba83266e	-0.001000596
99	0xbca48ab0	-0.020085663
100	0x3e19728d	0.14985104
101	0x3dad99d7	0.08476608
102	0x3e2e01c0	0.16992855
103	0x3e1d5bf3	0.15367107
104	0x3d8e678b	0.06953343
105	0xbc937616	-0.018000644
106	0xbe5e0aba	-0.2168378
107	0xbe00a92a	-0.12564531
108	0x3d2217f5	0.03957363
109	0x3dc21f4f	0.09478628
110	0xbda73374	-0.08164111
111	0x3dde5abe	0.108571514
112	0x3de826d0	0.11335528
113	0x3ddcfb50	0.107901216
114	0xbe23e935	-0.1600693
115	0x3dff625d	0.12469933
116	0xbd543195	-0.051805098
117	0xbd8db3b6	-0.06919043
118	0x3d4ae795	0.04953726
119	0x3e05909a	0.13043442
120	0x3d0f4598	0.03497848
121	0xbe006143	-0.12537102
122	0x3d994905	0.074846305
123	0xbd39f197	-0.045396414
124	0x3e0650f5	0.1311682
125	0x3d96e23b	0.07367369
126	0x3d03fa48	0.03222111
127	0xbd87bb72	-0.06627549
128	0xbd954ada	-0.072896674
129	0xbd8241a3	-0.063601755
130	0xbe27044f	-0.16310237
131	0x3d418bb3	0.04725237
132	0x3de98303	0.114019416
133	0xbd13e315	-0.036105234
134	0x3e0337c9	0.12814249
135	0x3d3b5b6b	0.04574148
136	0x3c7f37e3	0.015577289
137	0x3e1cddd0	0.1531899
138	0xbdd91520	-0.105997324
139	0x3e270977	0.16312204
140	0x3bd7b270	0.0065825507
141	0xbc82af4d	-0.01595273
142	0x3d0bb3d3	0.03410704
143	0xbe100e1d	-0.14067884
144	0x3e0417cc	0.12899703
145	0xbda9c524	-0.08289555
146	0x3d2b3542	0.041798837
147	0xbdd83ee3	-0.1055887
148	0x3df31e29	0.11870987
149	0x3e193403	0.14961247
150	0x3e30cecc	0.17266387
151	0x3e279ea2	0.16369107
152	0x3d2df0b0	0.042465866
153	0x3bb50914	0.005524764
154	0xbb76621b	-0.0037595097
155	0x3e12be24	0.14330345
156	0xbdeb9459	-0.115029044
157	0xbe0da474	-0.13832265
158	0xbe0e16cd	-0.13875885
159	0xbb349e29	-0.002756009
160	0xbe09a320	-0.13441133
161	0x3d0311c9	0.031999383
162	0xbdf817bd	-0.12113903
163	0xbd2637a0	-0.040580392
164	0x3de6c5f8	0.11268228
165	0xbdd47f34	-0.103758246
166	0x3e174eaa	0.14776102
167	0xbd0c7b32	-0.034297176
168	0x3de98a16	0.11403291
169	0xbdf48f4b	-0.119413935
170	0xbd33d0ac	-0.043900177
171	0xbc9146a7	-0.017733885
172	0x3d20298c	0.039102122
173	0xbde083e8	-0.10962659
174	0xbd6554e2	-0.055989154
175	0x3cec3706	0.028834831
176	0x3bf5ea46	0.007504734
177	0xbcee603b	-0.02909862
178	0x3e13b2ee	0.14423725
179	0xbcbb3840	-0.02285397
180	0x3dc1a611	0.09455503
181	0x3db28a54	0.0871779
182	0x3dd85f6d	0.10565076
183	0xbdad0161	-0.08447529
184	0xbdcee2ed	-0.101018764
185	0xb96e21bd	-0.00022710017
186	0x3dc19427	0.09452086
187	0xbd9b40f6	-0.0758075
188	0x3d9e9ff3	0.07745352
189	0x3ca62c93	0.020284927
190	0x3d9e43a3	0.077277444
191	0x3df8d3a8	0.12149745
192	0x3d0c414d	0.034241963
193	0x3da2e386	0.07953553
194	0x3e4f0867	0.20218049
195	0x3e8dc397	0.27688286
196	0x3e2402d6	0.16016707
197	0xbd5fb29a	-0.054613687
198	0xbdc49b55	-0.0959994
199	0xbdde3d08	-0.108514845
200	0xbc70011d	-0.014648703
201	0xbe080117	-0.13281666
202	0xbdcf4af8	-0.10121721
203	0x3d8c2567	0.068430714
204	0x3c53f7a7	0.012937463
205	0xbd580df1	-0.05274767
206	0xbdb5d033	-0.088776015
207	0xbe34cee9	-0.17657055
208	0xbe3c33cb	-0.18379132
209	0xbe32fafd	-0.17478557
210	0xbe32cba0	-0.1746049
211	0xbe48c436	-0.19606099
212	0x3de7900f	0.11306774
213	0x3e418fa6	0.18902454
214	0xbd8d9d38	-0.06914753
215	0xbc484bfd	-0.012225148
216	0x3cbca250	0.023026615
217	0x3bf76cbc	0.007550804
218	0x3d7f2adf	0.062296744
219	0xbd93a72c	-0.0720962
220	0xbe5c132e	-0.21491691
221	0xbe569ecf	-0.20959018
222	0x3d00e99d	0.03147279
223	0x3d04569f	0.03230917
224	0x3e31e93a	0.17374125
225	0x3db48809	0.08815009
226	0x3db033f7	0.086036615
227	0xbcbecd53	-0.023291266
228	0x3d40a0d8	0.047028393
229	0xbd5d24cc	-0.05399017
230	0xbd80abcd	-0.062827684
231	0xbdd783a8	-0.10523158
232	0xbe55cf18	-0.20879781
233	0xbe1a3a04	-0.15061194
234	0xbe32c40a	-0.17457595
235	0xbdd50a3e	-0.10402344
236	0xbe0559cb	-0.13022535
237	0xbde88b60	-0.11354709
238	0x3d5af8ec	0.053460047
239	0x3cd18a9b	0.025578788
240	0x3dd46d0e	0.10372363
241	0x3e2a3c8a	0.16624656
242	0x3db73fac	0.08947691
243	0x3e5f3268	0.21796572
244	0xbd5d7ae6	-0.054072283
245	0x3c31d006	0.010852819
246	0x3da484c1	0.08033133
247	0x3e11bdcf	0.14232562
248	0x3c800bee	0.015630689
249	0xbd3feb16	-0.046855055
250	0xbc0cc6b8	-0.0085923
251	0x3e2f331d	0.17109342
252	0x3db6a32c	0.08917841
253	0x3e1d83e1	0.15382339
254	0xbc33e4f8	-0.010979883
255	0xbac20a93	-0.0014804177

bias f4 [16]
0	0xbe06c52b	-0.13161151
1	0xbdc9e6bc	-0.09858462
2	0x3d948c28	0.07253295
3	0x3ccceb04	0.025014408
4	0x3cac91cc	0.021065615
5	0x3d7f75eb	0.062368315
6	0x3e37d1e6	0.17951164
7	0x3cb0e17a	0.02159189
8	0x3e15ab96	0.14616236
9	0xbc31921d	-0.010838059
10	0x3e2085ba	0.15676013
11	0x3c069a16	0.008215448
12	0x3d066cee	0.032818727
13	0xbe772fae	-0.24139282
14	0x3d4fd2cb	0.050738137
15	0x3d4743d8	0.048648685

weight f4 [16, 16, 2, 2]
0	0x3c3addc3	0.011405411
1	0xbe4b5e4f	-0.19860195
2	0xb9bb55b7	-0.00035731282
3	0xbe372239	-0.17884149
4	0xbde682d7	-0.112554245
5	0xbe805cb2	-0.2507072
6	0xbb9def21	-0.004819766
7	0xbdcb3776	-0.09922688
8	0x3e13c5e5	0.1443096
9	0x3ca4bb1b	0.02010875
10	0x3d2a8014	0.04162605
11	0x3dcd880d	0.10035715
12	0xbcc45ec1	-0.023970963
13	0xbd009c6b	-0.03139917
14	0xbd9ffca4	-0.07811859
15	0xbdcfedcc	-0.10152778
16	0xbdacc4ea	-0.08435996
17	0x3d31a6c5	0.043371934
18	0x3d662659	0.056188915
19	0xbdd3309f	-0.10312008
20	0x3e192cce	0.14958498
21	0x3d973d00	0.07384682
22	0xbe1f043e	-0.15528962
23	0x3d8e3939	0.06944508
24	0x3cd13309	0.02553703
25	0xbdd658e4	-0.10466173
26	0xbb2b48ad	-0.0026135847
27	0x3d9723d2	0.07379879
28	0xbdff0081	-0.12451268
29	0x3d9ba791	0.0760032
30	0x3debbaeb	0.11510261
31	0xbcd64d29	-0.02615984
32	0x3df14ff4	0.11782828
33	0x3d047eac	0.032347366
34	0x3dc70602	0.09717943
35	0x3e19af65	0.15008314
36	0xbda3283a	-0.07966657
37	0x3e2b7270	0.16742873
38	0xbddc8290	-0.1076709
39	0xbde605e7	-0.112315945
40	0xbd8f67bc	-0.07002208
41	0x3cea8d4b	0.028631827
42	0x3e58a4d9	0.21156634
43	0x3c4092e6	0.011753773
44	0xbe50d378	-0.20393169
45	0xbe28ad73	-0.16472416
46	0x39474df6	0.00019007162
47	0xbd19e7d4	-0.037574604
48	0x3cfa037c	0.03051924
49	0xbdbdc040	-0.092651844
50	0xbcc13348	-0.023584023
51	0x3e0e34e2	0.1388736
52	0x3d3d5399	0.046222303
53	0xbdcec418	-0.10095996
54	0xbc8c0f66	-0.017097186
55	0xbc98caa5	-0.018651316
56	0x3d4bea70	0.049784124
57	0x3e088a3e	0.13333985
58	0x3c99a095	0.01875333
59	0xbcab447b	-0.020906677
60	0xbd2ad07a	-0.041702725
61	0xbd66d15d	-0.056352008
62	0xbd8b8005	-0.06811527
63	0x3d96267d	0.0733156
64	0xbdbc937e	-0.092078194
65	0xbe11055c	-0.141622
66	0xbd4af4dd	-0.049549926
67	0x3d121652	0.035665818
68	0x3cf071a4	0.029351063
69	0x3e27c262	0.16382745
70	0x3e1a6a16	0.15079531
71	0x3d129849	0.03578976
72	0x3e1a7c4b	0.15086477
73	0x3df792b2	0.12088527
74	0x3d74e2ce	0.05978661
75	0xbdfa1a51	-0.12212051
76	0x3d8f0870	0.06984031
77	0x3b385934	0.002812934
78	0x3e6925db	0.22768347
79	0x3e81f0a8	0.2537892
80	0xbe37dfd9	-0.17956485
81	0xbd7c107b	-0.061539154
82	0xbcdf033a	-0.027223218
83	0xbdcce90a	-0.10005386
84	0xbc1f7d71	-0.009734497
85	0xbe205441	-0.1565714
86	0xbc96b0a9	-0.018394785
87	0x3c97e68e	0.018542554
88	0x3e37d347	0.1795169
89	0x3e3efb56	0.18650565
90	0x3d8abf32	0.06774749
91	0x3e1ef433	0.15522842
92	0x3e4d5e44	0.2005549
93	0x3e2e5ec7	0.17028342
94	0x3e436bb2	0.19084051
95	0x3dfb0eb9	0.122586675
96	0x3d8f3223	0.06991985
97	0x3dff74e5	0.12473468
98	0x3e11d91d	0.14242978
99	0x3d857416	0.06516282
100	0xbe6d8cfd	-0.23198314
101	0xbd216c4c	-0.03940992
102	0xbd58ff3b	-0.05297778
103	0x3b7a7e99	0.003822243
104	0x3dc21fbc	0.09478709
105	0xbd367908	-0.04454902
106	0x3d4b1fcc	0.04959087
107	0xbd9e184d	-0.07719479
108	0x3ca4bb42	0.020108823
109	0xbd887343	-0.066626094
110	0xbc69d1cb	-0.01427121
111	0x3e1001c7	0.14063178
112	0x3cab5df8	0.020918831
113	0x3db26462	0.08710553
114	0xbd216fb8	-0.039413184
115	0xbd1ab460	-0.037769675
116	0xbd15b8c0	-0.036553144
117	0xbe84fe68	-0.25975347
118	0xbe2689c0	-0.16263485
119	0xbe357201	-0.1771927
120	0xbe00154e	-0.12508127
121	0x3cb8d512	0.022562537
122	0x3da6bd0a	0.08141525
123	0x3dc8c8f6	0.09803955
124	0xbdbbd304	-0.091711074
125	0xbde87958	-0.113512695
126	0xbe020b7e	-0.12699696
127	0x3d8257c6	0.06364398
128	0x3d9deaa4	0.0771077
129	0xbd74c455	-0.05975755
130	0x3df4bae7	0.11949711
131	0xbd9e6fa5	-0.07736138
132	0xbd840656	-0.06446521
133	0x3e21d5bf	0.15804194
134	0xbbc6e5d5	-0.0060698786
135	0x3dfc4501	0.12317849
136	0x3d370434	0.044681743
137	0x3d09f14e	0.03367739
138	0x3e028d7e	0.12749287
139	0xbe2ed343	-0.17072777
140	0x3c0071f6	0.00783967
141	0x3cae024b	0.021241328
142	0xbb0e6909	-0.0021730086
143	0x3c1845d6	0.009293994
144	0x3e199db2	0.15001562
145	0x3d66f70e	0.056387953
146	0xbde1057d	-0.10987375
147	0x3d863993	0.0655395
148	0xbdec4574	-0.11536685
149	0xbd332ca1	-0.043743733
150	0xbdbd5acf	-0.09245836
151	0x3df80193	0.12109675
152	0xbd4b64d0	-0.04965669
153	0xbc6ec9c6	-0.014574474
154	0x3df670d2	0.120332375
155	0xbda19909	-0.07890517
156	0x3e60094a	0.21878543
157	0xbd76512e	-0.060136013
158	0x3959a58e	0.00020756407
159	0x3dcda7fe	0.100418076
160	0x3e275033	0.16339187
161	0xbe335f04	-0.17516714
162	0x3e187891	0.14889742
163	0xbe2cf13b	-0.16888897
164	0x3d145597	0.036214437
165	0xbdddde6a	-0.10833438
166	0xbd2bc4cb	-0.041935723
167	0x3d82cc11	0.06386579
168	0xbd2c5505	-0.04207327
169	0x3ce109e3	0.027470535
170	0x3d6b8c41	0.057506803
171	0x3d279aee	0.040919237
172	0xbcf64fd7	-0.030067367
173	0xbd591b9a	-0.05300484
174	0x3d91db8e	0.07121955
175	0x3da65fdb	0.08123752
176	0xbda1bc83	-0.07897284
177	0xbdd4e14d	-0.10394535
178	0xba0bd218	-0.00053337356
179	0xbdc3041e	-0.0952227
180	0x3e005287	0.12531482
181	0x3e1786d2	0.14797524
182	0xbde3c4f0	-0.11121547
183	0xbbe527f8	-0.00699329
184	0x3dd6a287	0.104802184
185	0xbd7a64c8	-0.06113127
186	0xbccca6e1	-0.024981918
187	0x3dfb013d	0.122560956
188	0x3e816028	0.25268674
189	0x3ca16eb6	0.019706111
190	0x3e33a622	0.17543843
191	0xbe04036f	-0.12891935
192	0x3e356a49	0.17716326
193	0x3e1dc38c	0.15406626
194	0xbd167855	-0.03673585
195	0x3dd3f66c	0.103497356
196	0xbdbff9e8	-0.09373838
197	0x3d8f38f3	0.06993284
198	0x3d9b392c	0.07579264
199	0xbd66ddbf	-0.056363817
200	0x3e1baf00	0.15203476
201	0x3cbf8b9e	0.023382004
202	0x3dbc3f6e	0.09191786
203	0x3c78f439	0.015194946
204	0xbde65aa4	-0.11247757
205	0xbdb0a8c9	-0.08625943
206	0xbdfb2c8a	-0.122643545
207	0xbe0f5191	-0.13995959
208	0x3cbfa552	0.02339426
209	0xbd899772	-0.06718339
210	0xbdb9bfeb	-0.090698086
211	0xbcf67fa1	-0.030090155
212	0x3e00605f	0.12536763
213	0xbd2fae48	-0.042890817
214	0x3d9d60e2	0.076844946
215	0x3ccb7adf	0.024838863
216	0x3df1c6c9	0.118054934
217	0xbdcddc3c	-0.10051772
218	0x3d6f6562	0.058446296
219	0xbc2fea86	-0.010737067
220	0xbdc8eaf7	-0.09810441
221	0xbd7a91e6	-0.061174296
222	0x3e1527f1	0.14566018
223	0xbd48b281	-0.04899836
224	0x3dea577b	0.11442467
225	0x3dee29a9	0.1162904
226	0xbbe44233	-0.0069658994
227	0x3deac4d4	0.11463323
228	0xbc995728	-0.018718317
229	0xbe1df614	-0.15425903
230	0xbca8d0b4	-0.02060733
231	0xbd0ccb3a	-0.0343735
232	0x3df3de3c	0.11907622
233	0x3e3da21a	0.18518868
234	0x3e174fd4	0.14776546
235	0x3e3174e1	0.17329742
236	0x3dd23fb4	0.10266057
237	0x3da5ff90	0.08105385
238	0xbb5b9027	-0.003350267
239	0x3c1c8ae2	0.009554597
240	0x3dee3929	0.11631996
241	0x3d41262f	0.047155555
242	0x3d9cba1b	0.07652684
243	0x3c2292ef	0.009922727
244	0x3d90466f	0.07044684
245	0xbd4e210b	-0.05032448
246	0xbd8610f4	-0.06546202
247	0xbdd27977	-0.10277074
248	0x3dd7202b	0.105041824
249	0x3caec393	0.021333491
250	0x3d9071d9	0.07052965
251	0x3d9540a1	0.072877176
252	0x3dcd82b9	0.10034699
253	0x3d9d5101	0.07681466
254	0xbdb91a7a	-0.09038253
255	0x3b233854	0.00249054

bias f4 [16]
0	0x3e097a0f	0.13425468
1	0x3e27b2fb	0.1637687
2	0xbdf0bfd4	-0.11755338
3	0x3d835972	0.06413545
4	0x3dc36acd	0.09541855
5	0xbc3c8a7c	-0.011507627
6	0x3e434d86	0.19072542
7	0x3dd34cb9	0.10317368
8	0x3c44ed8c	0.012019526
9	0x3e297dd4	0.16551906
10	0xbdd488a9	-0.10377628
11	0x3e7a82f0	0.24464011
12	0xbccb1164	-0.024788566
13	0x3bb8d50d	0.005640632
14	0xbc0bf173	-0.008541453
15	0xbded9abd	-0.116017796

weight f4 [128, 576]
0	0x3d2b2669	0.041784678
1	0x3d26c74d	0.04071741
2	0x3c9c9957	0.019116087
3	0x3d186f80	0.03721571
4	0xbc40f2e1	-0.011776657
5	0xbc941165	-0.0180747
6	0x3d34f702	0.044180878
7	0xbc9301bf	-0.017945169
8	0x3c643baf	0.013930245
9	0xbd1ca386	-0.038241886
10	0xbcd21b64	-0.025647826
11	0x3c859666	0.016307067
12	0xbc72f1b8	-0.014828138
13	0x3c6fe131	0.014641092
14	0x39f3e490	0.00046518864
15	0x3cfdddb8	0.030989513
16	0xbc7cea61	-0.01543674
17	0xbd048264	-0.032350913
18	0xbc54ba52	-0.012983875
19	0xbc9c351b	-0.019068291
20	0x3d1b943c	0.037983164
21	0x3ccc1541	0.024912478
22	0xbd0b61f8	-0.034028977
23	0xbcf877e7	-0.030330611
24	0xbc42a868	-0.0118809715
25	0xbc409f03	-0.011756661
26	0x3cae2759	0.021258997
27	0x3d0f4a8d	0.034983207
28	0xbc58a350	-0.0132225305
29	0x3c382dca	0.011241386
30	0x3cb30a29	0.02185543
31	0xbcabe777	-0.020984394
32	0x3c34efce	0.011043502
33	0xbb825ef3	-0.003978604
34	0xbc4d85c0	-0.0125440955
35	0xbc92c8b3	-0.017917966
36	0xbd2caa94	-0.042154863
37	0x3c5edfc4	0.013603155
38	0xbbd76517	-0.00657333
39	0x3cea0a6c	0.028569423
40	0x3cf712ca	0.030160327
41	0xbbbea9df	-0.00581859
42	0xbcfad228	-0.030617788
43	0xbcf983ac	-0.030458294
44	0xbc3c2734	-0.011483956
45	0xbc8c53a7	-0.017129732
46	0xbce02a1f	-0.027363835
47	0x3cf742de	0.030183252
48	0x3c47b3e8	0.012188889
49	0x3c79eac1	0.015253724
50	0xbc52a26b	-0.012856106
51	0xbcb0510a	-0.021523017
52	0xbcdec21c	-0.027192168
53	0xbc6935bd	-0.014234004
54	0xbbaa5a9a	-0.005198789
55	0xbd04a7f6	-0.032386743
56	0x3c006def	0.00783871
57	0x3c6aada8	0.014323629
58	0x3c65ac4d	0.0140181305
59	0xbba46615	-0.005017052
60	0x3b238593	0.0024951443
61	0xbc2bc8f7	-0.0104849255
62	0xbc0b5dbe	-0.008506237
63	0x3c9da8d6	0.019245546
64	0x3d164a59	0.036691997
65	0xbb875d25	-0.0041309767
66	0x3c359150	0.0110820085
67	0x3cd11026	0.025520395
68	0xbd0e05b7	-0.03467342
69	0xbb68d318	-0.0035526212
70	0xbcf635d5	-0.030054966
71	0x3cc33dba	0.023833144
72	0x3cede614	0.029040374
73	0xbcc3a7d6	-0.023883741
74	0x3c67101b	0.014102961
75	0x3c2279a8	0.0099167
76	0xbbee57f6	-0.0072736694
77	0x3ca7b2f0	0.020471066
78	0xbccf779b	-0.025325587
79	0x3c4727ea	0.012155512
80	0xbcaa1f56	-0.020766895
81	0xbc0eb6f4	-0.008710612
82	0xbbc0effa	-0.0058879824
83	0xba364969	-0.0006953688
84	0x3d114f4e	0.03547602
85	0xbc1801d4	-0.00927778
86	0xbbacc221	-0.0052721654
87	0xbd0d3d1b	-0.034482103
88	0xbcb41627	-0.02198322
89	0x3b8f1b64	0.004367279
90	0xbc8c0718	-0.017093226
91	0x3c6b1e55	0.014350493
92	0xbd279a7e	-0.04091882
93	0x3c59b9c5	0.01328892
94	0x3c50c429	0.012742081
95	0xbd2e9792	-0.042625017
96	0xbcdda4b0	-0.027056068
97	0xbcbbca6e	-0.022923674
98	0x3cf7aeaa	0.030234654
99	0xbd23eea8	-0.040022522
100	0x3d04c547	0.0324147
101	0x3cc6419f	0.024201212
102	0xbd0b09b9	-0.03394482
103	0xbccdb2e9	-0.025109725
104	0xbd2435c1	-0.040090326
105	0xbd2467ef	-0.04013818
106	0x3c0c60a0	0.008567959
107	0x3aa29fef	0.0012407283
108	0x3afb6453	0.0019179679
109	0x3c96b6ba	0.018397678
110	0x3c2fc518	0.010728143
111	0xbcafd1e6	-0.021462392
112	0xbc2689be	-0.010164676
113	0xbb9f9c64	-0.004870938
114	0x3cc912cf	0.024545101
115	0x3d4ba024	0.04971327
116	0x3cf7f550	0.030268341
117	0xbb2670b5	-0.0025396768
118	0xbc83379c	-0.016017728
119	0x3d00dc64	0.03146018
120	0x3d3d74b7	0.046253886
121	0x3d158358	0.036502212
122	0x3a8ce3c5	0.0010749033
123	0xbc1206bf	-0.008912741
124	0x3cb04ed0	0.021521956
125	0x3c090eb7	0.008365325
126	0x3d23206d	0.039825846
127	0xbb63d936	-0.003476692
128	0xbd20c143	-0.03924681
129	0xbd0ae97d	-0.033914078
130	0xbd407418	-0.046985716
131	0x3ccb5e5e	0.024825271
132	0xbc1e83c8	-0.009674974
133	0x3bd75d60	0.0065724105
134	0x3c7038d8	0.01466199
135	0xbc23b85a	-0.009992683
136	0x3c106f1c	0.008815553
137	0x3d15a14b	0.036530774
138	0x3bbb95df	0.005724653
139	0xbcc64579	-0.024203049
140	0xbd0caef6	-0.034346543
141	0xbc33aca9	-0.010966458
142	0x3c9f861a	0.019473124
143	0xbc331a45	-0.010931556
144	0xbd2a3c1f	-0.041561242
145	0xbd159cf5	-0.03652664
146	0x3aa1f67a	0.0012356781
147	0x3c733191	0.0148433605
148	0x39ea8df3	0.00044737718
149	0x3c9d0b93	0.019170558
150	0x3c3e0f06	0.011600262
151	0xbc94d005	-0.018165598
152	0x3a51287d	0.00079787505
153	0xbd00d574	-0.031453565
154	0xbc8b291e	-0.01698738
155	0xbc086a5c	-0.008326139
156	0x3d1902dc	0.037356243
157	0xbcf5f158	-0.030022308
158	0x3b541ece	0.0032366994
159	0xbcc8925d	-0.024483854
160	0xbd2bcca1	-0.041943196
161	0xbc899f4c	-0.016799591
162	0xbc641876	-0.013921848
163	0x3c9c5378	0.01908277
164	0xbd3d7ed9	-0.04626355
165	0xbbd4fd02	-0.0064998874
166	0xbcec8474	-0.028871752
167	0xbccee28e	-0.025254514
168	0xbcf11432	-0.029428575
169	0xbb1b75b6	-0.0023721284
170	0x3c9ef7a6	0.019405197
171	0x3b8f1094	0.00436599
172	0xbc9a65b3	-0.018847322
173	0x3c91402b	0.017730793
174	0x3c8b9750	0.017039925
175	0xbce15172	-0.027504656
176	0xbc842919	-0.016132878
177	0xbcb9956d	-0.02265426
178	0xbc3807cf	-0.01123233
179	0xbcff5402	-0.031167988
180	0x3ce46ebd	0.027884835
181	0xbca66ca0	-0.020315468
182	0x3cbddff7	0.023178084
183	0x3a9ba5ef	0.0011875014
184	0xba7a499a	-0.00095477107
185	0x3cdb9ce3	0.026808208
186	0x3d13892d	0.036019493
187	0x3c2af925	0.010435377
188	0xbca7e7ab	-0.02049621
189	0xbc4e49e9	-0.012590864
190	0xbae3b660	-0.0017373078
191	0xbd01fe50	-0.031736672
192	0x3d60f990	0.0549255
193	0x3c121fc0	0.008918703
194	0xbc85e275	-0.016343335
195	0x3d0d3810	0.034477293
196	0x3cdaa1e4	0.026688524
197	0xbb9a2697	-0.0047043073
198	0x3ccd83d0	0.025087267
199	0x3d30bff7	0.043151822
200	0xbd0c7381	-0.03428984
201	0x3d11f74c	0.03563623
202	0xbce0b475	-0.027429799
203	0x3cc297fe	0.023754116
204	0xbd0ccc87	-0.03437474
205	0x3ced3efc	0.028960697
206	0x3c555e56	0.01302298
207	0x3b0b5847	0.0021262334
208	0x3c4e0d77	0.012576452
209	0xbcc802fd	-0.024415487
210	0x3c91af57	0.017783804
211	0x3b026fec	0.0019903136
212	0xbc944ff8	-0.018104538
213	0xbd01c25b	-0.031679492
214	0x3a659fb0	0.0008759452
215	0x3d2ee711	0.04270083
216	0x3d2ebac7	0.042658594
217	0xbcb05d0f	-0.021528749
218	0x3cf2b662	0.029627983
219	0x3d090389	0.033450637
220	0xbd06c442	-0.03290201
221	0xbc53e43d	-0.012932834
222	0xbc844a0f	-0.016148595
223	0x3c296396	0.010338685
224	0xbb391422	-0.002824076
225	0xbb27313a	-0.002551152
226	0x3be53ddf	0.006995901
227	0x3bd2e78c	0.006436294
228	0xbcb6064f	-0.022219805
229	0xbcbdc18f	-0.023163585
230	0xbd09b207	-0.033617046
231	0x3cfd5932	0.03092632
232	0x3d0377b8	0.032096595
233	0x3d04ec17	0.032451715
234	0x3c3942fb	0.011307473
235	0xbc8f5bad	-0.01749977
236	0xbc699120	-0.014255792
237	0x3c647ea7	0.013946212
238	0xbcdaa13a	-0.026688207
239	0xba80ba71	-0.0009821189
240	0xbd0aed63	-0.033917796
241	0xbbe1bfa6	-0.0068893014
242	0xbd006cf0	-0.03135389
243	0xbd1a1901	-0.0376215
244	0x3cae32b2	0.021264408
245	0x3c611168	0.01373706
246	0xbcd7cd1d	-0.026342923
247	0x3d1701ef	0.03686708
248	0x3b828c2a	0.003983994
249	0xbc608fd2	-0.013706164
250	0xbc294289	-0.010330805
251	0xbc6571fa	-0.014004225
252	0x3adeabf7	0.0016988505
253	0xbc9bba62	-0.019009773
254	0xbc82f5d8	-0.015986368
255	0xbca6f6a3	-0.020381277

bias f4 [128]
0	0x3bc1079c	0.0058907997
1	0x3d2a3dc2	0.041562803
2	0xbcffef3f	-0.031242011
3	0x3cb806ba	0.022464145
4	0x3cb92f90	0.022605687
5	0x3d5fbc76	0.05462309
6	0x3c999153	0.018746054
7	0x3d1d20de	0.038361423
8	0x3b766177	0.0037594715
9	0xbd1620cb	-0.036652368
10	0x3c1c8e8d	0.009555471
11	0xbd0b9d87	-0.034085777
12	0xbc557a8d	-0.013029707
13	0xbd228b70	-0.03968376
14	0xbcc43046	-0.0239488
15	0x3cab5679	0.020915257
16	0x3cb87f72	0.022521708
17	0xbbacc76b	-0.005272796
18	0xbc647e89	-0.013946184
19	0x3bf91d5b	0.0076023764
20	0x3ce312f2	0.027718995
21	0xbcb02cd4	-0.02150575
22	0x3bba1c9b	0.0056796796
23	0xbc65063c	-0.013978537
24	0xbd0475a5	-0.032338757
25	0xbd16e429	-0.036838684
26	0x3c3326f1	0.010934577
27	0x3a368656	0.00069627666
28	0x3caa5593	0.020792758
29	0xbcd7cfb9	-0.026344167
30	0x3d4afdcc	0.049558446
31	0xbc959090	-0.01825741
32	0x3c9a5031	0.018837066
33	0xbc058042	-0.008148255
34	0xbd2660f5	-0.04061981
35	0xbbb7231f	-0.0055889036
36	0x3d547146	0.05186584
37	0x3d61703c	0.055038676
38	0x3d4f14b5	0.050556857
39	0xbbf246a6	-0.007393676
40	0xbd29c492	-0.04144723
41	0x3d06d945	0.032922048
42	0x3ce90c16	0.028448146
43	0xbca6db5e	-0.020368274
44	0x3d3b672a	0.04575268
45	0xbc8a7125	-0.016899655
46	0xbc978b43	-0.018499022
47	0x3d7cbd5d	0.06170403
48	0xba968168	-0.0011482658
49	0xbcdde52e	-0.02708682
50	0xbcc2d366	-0.023782443
51	0xbc63b1e2	-0.013897391
52	0x3d54e795	0.051978666
53	0xbcd09bdf	-0.02546495
54	0x3a8e3665	0.0010849951
55	0x3d3a05fd	0.045415867
56	0x3d0136d0	0.031546414
57	0xbb1b07e6	-0.002365583
58	0xbcbdfb3f	-0.023191093
59	0x3cb415fe	0.021983143
60	0x3d2da130	0.04239005
61	0x3d000b99	0.03126106
62	0xbd069b66	-0.032863043
63	0xbc60125f	-0.013676255
64	0xbc9d951c	-0.01923614
65	0x3ae90daa	0.0017780561
66	0x3d2adadb	0.041712623
67	0xbcb5b0e1	-0.022179069
68	0xbc9f6a5d	-0.019459898
69	0x3bf71f60	0.007541582
70	0xbced1f9b	-0.028945735
71	0x3bcdc663	0.006279753
72	0xbc486d96	-0.012233159
73	0xbb9a12a0	-0.0047019273
74	0x3b84cecf	0.004052974
75	0x3c155733	0.009115028
76	0xbcbc051c	-0.022951655
77	0xbc887cc9	-0.016661065
78	0xbd29ccef	-0.041455206
79	0x3bb2eb17	0.005460154
80	0x3d318433	0.043338966
81	0x3d288572	0.04114289
82	0x3d2c864e	0.04212027
83	0xbbdc63c6	-0.006725761
84	0x3d15f24a	0.036608018
85	0x3d275bc4	0.040859
86	0x3d138d2e	0.03602331
87	0x3cb52ad2	0.022115145
88	0x3c837b23	0.016049927
89	0xbd16c93e	-0.036813013
90	0xbcaab68e	-0.020839002
91	0xbc5678be	-0.013090311
92	0xbd0fa492	-0.035069056
93	0x3d16e701	0.036841396
94	0x3d5a2892	0.053261347
95	0x3cea2b3f	0.028585074
96	0xbbce283a	-0.0062914165
97	0x3c0f7016	0.008754751
98	0x3b0872c2	0.0020820354
99	0x3d0ba980	0.034097195
100	0x3c92c1c3	0.017914658
101	0x3d3e620c	0.046480224
102	0xbd1cac20	-0.03825009
103	0x388425a5	6.301262e-05
104	0x3d2b8c99	0.04188213
105	0x3d3aee16	0.045637213
106	0xbc069d65	-0.008216237
107	0x3ceb5119	0.028725194
108	0xbd016a6a	-0.031595625
109	0x3be9673e	0.007122903
110	0x3d18e6c9	0.03732947
111	0xbad81404	-0.0016485457
112	0x3c790ee7	0.015201307
113	0x3c96d680	0.018412828
114	0x3aedc382	0.0018139931
115	0xbd0999ed	-0.03359406
116	0xbb301b72	-0.0026871827
117	0xbba844e0	-0.0051351637
118	0x3b628ab0	0.0034567527
119	0x3d05cac8	0.03266409
120	0xbd085d64	-0.03329219
121	0xbc6c1f7a	-0.0144118015
122	0x3cb1ea6d	0.021718228
123	0x3c22c64f	0.009934976
124	0xbd0161fb	-0.031587582
125	0x3c610718	0.013734601
126	0x3bc7b89a	0.0060950043
127	0xbcc304ab	-0.023805937

weight f4 [128]
0	0x3f80a17d	1.0049282
1	0x3f81eaf5	1.0149828
2	0x3f80775c	1.0036426
3	0x3f804d16	1.0023525
4	0x3f8192dc	1.0122943
5	0x3f81de54	1.0145974
6	0x3f8094cc	1.0045409
7	0x3f80d6ac	1.0065513
8	0x3f80ae0f	1.0053118
9	0x3f800fdd	1.0004841
10	0x3f80df9f	1.0068244
11	0x3f803597	1.0016354
12	0x3f8082bd	1.0039898
13	0x3f807c4c	1.0037932
14	0x3f8044ee	1.0021036
15	0x3f80e7ed	1.0070778
16	0x3f80a338	1.004981
17	0x3f809ae1	1.0047265
18	0x3f7ff805	0.9998782
19	0x3f8009fd	1.0003048
20	0x3f809ded	1.0048195
21	0x3f804c33	1.0023254
22	0x3f80aa9e	1.0052068
23	0x3f80bdf6	1.0057971
24	0x3f896396	1.0733516
25	0x3f802f66	1.0014465
26	0x3f806709	1.0031444
27	0x3f8002d1	1.000086
28	0x3f805b7f	1.0027922
29	0x3f804e88	1.0023966
30	0x3f859c3d	1.0438305
31	0x3f80cdf5	1.0062853
32	0x3f8254f2	1.0182173
33	0x3f820590	1.0157948
34	0x3f80012a	1.0000355
35	0x3f7fea8c	0.99967265
36	0x3f838f12	1.0278037
37	0x3f853903	1.0408024
38	0x3f81bc39	1.0135566
39	0x3f800b3b	1.0003427
40	0x3f802ba6	1.001332
41	0x3f8032e3	1.0015529
42	0x3f8162bf	1.010826
43	0x3f7ff43c	0.9998205
44	0x3f836dba	1.0267861
45	0x3f804d3d	1.0023571
46	0x3f804231	1.00202
47	0x3f89459c	1.0724368
48	0x3f837f04	1.0273137
49	0x3f83d260	1.0298576
50	0x3f802b5e	1.0013235
51	0x3f820393	1.0157341
52	0x3f87f4e2	1.0621607
53	0x3f80060d	1.0001847
54	0x3f81a386	1.0128028
55	0x3f9145c2	1.1349413
56	0x3f8171d1	1.0112859
57	0x3f8162df	1.0108298
58	0x3f853dc2	1.0409472
59	0x3f81a39f	1.0128058
60	0x3f81e161	1.0146905
61	0x3f80c1a0	1.005909
62	0x3f8001e8	1.0000582
63	0x3f80e01f	1.0068396
64	0x3f7fe0b8	0.9995227
65	0x3f84075f	1.031475
66	0x3f80ffa9	1.0078021
67	0x3f82615e	1.0185964
68	0x3f82cb5b	1.0218309
69	0x3f7ff626	0.9998497
70	0x3f801adb	1.0008196
71	0x3f801250	1.0005589
72	0x3f813d51	1.0096837
73	0x3f80b8de	1.0056417
74	0x3f803eb9	1.0019141
75	0x3f80eab9	1.0071632
76	0x3f7fd90b	0.99940556
77	0x3f80013e	1.0000379
78	0x3f801688	1.0006876
79	0x3f84c8b5	1.0373751
80	0x3f809227	1.0044602
81	0x3f7fffff	0.99999994
82	0x3f803154	1.0015054
83	0x3f803530	1.0016232
84	0x3f801ac3	1.0008167
85	0x3f80f31a	1.0074189
86	0x3f83e95e	1.0305593
87	0x3f804e3b	1.0023874
88	0x3f7fc8ce	0.9991578
89	0x3f807d3f	1.0038222
90	0x3f80367a	1.0016625
91	0x3f83c4f1	1.0294477
92	0x3f814156	1.0098064
93	0x3f807e61	1.0038568
94	0x3f807863	1.0036739
95	0x3f82c55e	1.0216482
96	0x3f80a312	1.0049765
97	0x3f8053c5	1.0025564
98	0x3f801fa5	1.0009657
99	0x3f80708a	1.0034344
100	0x3f800ea6	1.000447
101	0x3f834b31	1.0257322
102	0x3f803a7d	1.0017849
103	0x3f82e3d9	1.0225784
104	0x3f819117	1.0122403
105	0x3f809e23	1.004826
106	0x3f8419c2	1.0320361
107	0x3f8240a2	1.0175974
108	0x3f81c65c	1.013866
109	0x3f80d90d	1.0066239
110	0x3f81621f	1.0108069
111	0x3f80ae38	1.0053167
112	0x3f81d803	1.0144047
113	0x3f80381f	1.0017127
114	0x3f815a08	1.01056
115	0x3f80f4ee	1.0074747
116	0x3f801460	1.0006218
117	0x3f8026bb	1.001182
118	0x3f807405	1.0035406
119	0x3f800ef2	1.0004561
120	0x3f8061cb	1.0029844
121	0x3f8016c6	1.000695
122	0x3f8327a2	1.024647
123	0x3f80b69c	1.0055728
124	0x3f80e1a2	1.0068858
125	0x3f806a05	1.0032355
126	0x3f81b332	1.0132811
127	0x3f8000d2	1.000025

bias f4 [128]
0	0x3b815c66	0.0039477823
1	0x3c5a20b1	0.013313458
2	0x3ad65175	0.001635118
3	0x3b8c33a1	0.0042786156
4	0x3c308db4	0.010775972
5	0x3cb4d20f	0.02207282
6	0x3c40a5de	0.011758296
7	0x3c4e57fb	0.012594218
8	0x3bfc4ce2	0.007699595
9	0x3930a2f0	0.00016845367
10	0xbb6aab25	-0.0035807576
11	0xbbba206d	-0.005680135
12	0x3b3c6703	0.0028747923
13	0xbad72913	-0.0016415439
14	0x3bcd54fa	0.0062662335
15	0x3c36070a	0.011110077
16	0xb986b23b	-0.00025691264
17	0x3a5f9d56	0.000853022
18	0xbae3636d	-0.0017348357
19	0x3a9b05e7	0.001182732
20	0xbb1dc8d5	-0.0024076004
21	0xbaaf49e0	-0.0013373457
22	0xbb044020	-0.0020179823
23	0x3a8518d1	0.0010154491
24	0xba809ff6	-0.0009813297
25	0xbb7ee53c	-0.0038893959
26	0x3b8121d9	0.0039408025
27	0xbc0bba3b	-0.0085282875
28	0xbac5116f	-0.0015035103
29	0x3bc39ee6	0.00596987
30	0x3d1268ac	0.035744354
31	0x392d2fc3	0.00016516358
32	0x3c681deb	0.014167289
33	0x3bae8d75	0.0053269216
34	0xbba55f76	-0.00504678
35	0x3b795ed2	0.0038050902
36	0x3c8f03e4	0.01745791
37	0x3d0ab5c8	0.033864766
38	0x3c31c5fa	0.010850424
39	0x3b7b125c	0.0038310504
40	0x39010024	0.00012302451
41	0xbbc46faa	-0.0059947567
42	0x3c24d605	0.010060792
43	0xbb308560	-0.0026934966
44	0x3b940128	0.0045167394
45	0x3c49f5ba	0.012326652
46	0x3b81e331	0.003963851
47	0x3ceb994a	0.028759617
48	0x3c7a3d57	0.015273414
49	0x3c28403d	0.010269222
50	0x3bf7f00e	0.0075664585
51	0x3c1f0608	0.009706028
52	0x3d46a63f	0.04849839
53	0x39d51025	0.00040638554
54	0x3c1ec083	0.009689453
55	0x3c853758	0.016261742
56	0x3c71ef8e	0.014766587
57	0x3aa15985	0.0012310004
58	0xba88cac9	-0.0010436411
59	0x3b270e6c	0.0025490774
60	0x3b75daf5	0.0037514542
61	0x3bd1ee95	0.006406615
62	0xba7391a8	-0.0009291419
63	0xbb3ca9f3	-0.002878782
64	0x3a20141b	0.00061065116
65	0x3d28f661	0.04125059
66	0x3cc041a1	0.023468794
67	0xbb27d75a	-0.0025610537
68	0x3c87db24	0.016583987
69	0xb9fae35f	-0.0004785312
70	0x3bb3231c	0.005466832
71	0xbb4ca2e8	-0.003122503
72	0xbaeaf6b6	-0.0017926309
73	0x3c80cee0	0.015723646
74	0xbbd69e54	-0.006549636
75	0x3aebbcb8	0.001798532
76	0xbb244cb1	-0.0025070126
77	0x3a56a7ee	0.00081884756
78	0xbb2e631d	-0.002660937
79	0x3b3b08ce	0.0028539184
80	0x3ca7d4dc	0.020487241
81	0xb5cf648a	-1.5451963e-06
82	0x3bf222b2	0.00738939
83	0xb9d45683	-0.00040500247
84	0xbb546357	-0.0032407844
85	0x3c0c2df0	0.008555874
86	0x3a37ab19	0.00070063915
87	0x3c1ed958	0.0096953735
88	0xbb5f5b87	-0.0034081654
89	0xbc6afa02	-0.014341833
90	0xbb5bec55	-0.0033557613
91	0x3c19d298	0.009388588
92	0xbb6c4ee8	-0.0036057774
93	0x3b38977d	0.0028166466
94	0x3c499d9e	0.012305645
95	0x3bd428f1	0.006474607
96	0x3c4fae9f	0.01267591
97	0x3bdd8888	0.0067606606
98	0x3b0b9adf	0.0021302027
99	0x3ba6957a	0.005083737
100	0x3bfa623c	0.007641105
101	0x3c3ed1af	0.011646672
102	0xbb235128	-0.00249202
103	0x3c120ca8	0.00891415
104	0x3b90c7b5	0.004418338
105	0x3b9dd741	0.00481692
106	0xbad297ea	-0.0016067002
107	0x3c9d4d66	0.019201946
108	0xbb9dc5fc	-0.0048148613
109	0x3b2aa5ed	0.002603884
110	0x3c1e8141	0.009674371
111	0xba299c32	-0.00064701133
112	0x3b2f5104	0.002675117
113	0xbb098e16	-0.002098923
114	0x3a6d9988	0.00090637105
115	0x3bb94141	0.005653531
116	0x397c9df3	0.00024091433
117	0x3b51f358	0.0032035913
118	0xbb00c9af	-0.0019651463
119	0x3abe8ace	0.0014537217
120	0x3ab9f4f9	0.0014187387
121	0x3984cfa9	0.0002533172
122	0x3cebfdee	0.028807607
123	0x3a8def2b	0.0010828724
124	0xbb69a347	-0.00356503
125	0x3c43cc0c	0.011950504
126	0x3c3daf71	0.011577473
127	0x3657193f	3.2052192e-06

running_mean f4 [128]
0	0x00000000	0.0
1	0x00000000	0.0
2	0x00000000	0.0
3	0x00000000	0.0
4	0x00000000	0.0
5	0x00000000	0.0
6	0x00000000	0.0
7	0x00000000	0.0
8	0x00000000	0.0
9	0x00000000	0.0
10	0x00000000	0.0
11	0x00000000	0.0
12	0x00000000	0.0
13	0x00000000	0.0
14	0x00000000	0.0
15	0x00000000	0.0
16	0x00000000	0.0
17	0x00000000	0.0
18	0x00000000	0.0
19	0x00000000	0.0
20	0x00000000	0.0
21	0x00000000	0.0
22	0x00000000	0.0
23	0x00000000	0.0
24	0x00000000	0.0
25	0x00000000	0.0
26	0x00000000	0.0
27	0x00000000	0.0
28	0x00000000	0.0
29	0x00000000	0.0
30	0x00000000	0.0
31	0x00000000	0.0
32	0x00000000	0.0
33	0x00000000	0.0
34	0x00000000	0.0
35	0x00000000	0.0
36	0x00000000	0.0
37	0x00000000	0.0
38	0x00000000	0.0
39	0x00000000	0.0
40	0x00000000	0.0
41	0x00000000	0.0
42	0x00000000	0.0
43	0x00000000	0.0
44	0x00000000	0.0
45	0x00000000	0.0
46	0x00000000	0.0
47	0x00000000	0.0
48	0x00000000	0.0
49	0x00000000	0.0
50	0x00000000	0.0
51	0x00000000	0.0
52	0x00000000	0.0
53	0x00000000	0.0
54	0x00000000	0.0
55	0x00000000	0.0
56	0x00000000	0.0
57	0x00000000	0.0
58	0x00000000	0.0
59	0x00000000	0.0
60	0x00000000	0.0
61	0x00000000	0.0
62	0x00000000	0.0
63	0x00000000	0.0
64	0x00000000	0.0
65	0x00000000	0.0
66	0x00000000	0.0
67	0x00000000	0.0
68	0x00000000	0.0
69	0x00000000	0.0
70	0x00000000	0.0
71	0x00000000	0.0
72	0x00000000	0.0
73	0x00000000	0.0
74	0x00000000	0.0
75	0x00000000	0.0
76	0x00000000	0.0
77	0x00000000	0.0
78	0x00000000	0.0
79	0x00000000	0.0
80	0x00000000	0.0
81	0x00000000	0.0
82	0x00000000	0.0
83	0x00000000	0.0
84	0x00000000	0.0
85	0x00000000	0.0
86	0x00000000	0.0
87	0x00000000	0.0
88	0x00000000	0.0
89	0x00000000	0.0
90	0x00000000	0.0
91	0x00000000	0.0
92	0x00000000	0.0
93	0x00000000	0.0
94	0x00000000	0.0
95	0x00000000	0.0
96	0x00000000	0.0
97	0x00000000	0.0
98	0x00000000	0.0
99	0x00000000	0.0
100	0x00000000	0.0
101	0x00000000	0.0
102	0x00000000	0.0
103	0x00000000	0.0
104	0x00000000	0.0
105	0x00000000	0.0
106	0x00000000	0.0
107	0x00000000	0.0
108	0x00000000	0.0
109	0x00000000	0.0
110	0x00000000	0.0
111	0x00000000	0.0
112	0x00000000	0.0
113	0x00000000	0.0
114	0x00000000	0.0
115	0x00000000	0.0
116	0x00000000	0.0
117	0x00000000	0.0
118	0x00000000	0.0
119	0x00000000	0.0
120	0x00000000	0.0
121	0x00000000	0.0
122	0x00000000	0.0
123	0x00000000	0.0
124	0x00000000	0.0
125	0x00000000	0.0
126	0x00000000	0.0
127	0x00000000	0.0

running_var f4 [128]
0	0x3f800000	1.0
1	0x3f800000	1.0
2	0x3f800000	1.0
3	0x3f800000	1.0
4	0x3f800000	1.0
5	0x3f800000	1.0
6	0x3f800000	1.0
7	0x3f800000	1.0
8	0x3f800000	1.0
9	0x3f800000	1.0
10	0x3f800000	1.0
11	0x3f800000	1.0
12	0x3f800000	1.0
13	0x3f800000	1.0
14	0x3f800000	1.0
15	0x3f800000	1.0
16	0x3f800000	1.0
17	0x3f800000	1.0
18	0x3f800000	1.0
19	0x3f800000	1.0
20	0x3f800000	1.0
21	0x3f800000	1.0
22	0x3f800000	1.0
23	0x3f800000	1.0
24	0x3f800000	1.0
25	0x3f800000	1.0
26	0x3f800000	1.0
27	0x3f800000	1.0
28	0x3f800000	1.0
29	0x3f800000	1.0
30	0x3f800000	1.0
31	0x3f800000	1.0
32	0x3f800000	1.0
33	0x3f800000	1.0
34	0x3f800000	1.0
35	0x3f800000	1.0
36	0x3f800000	1.0
37	0x3f800000	1.0
38	0x3f800000	1.0
39	0x3f800000	1.0
40	0x3f800000	1.0
41	0x3f800000	1.0
42	0x3f800000	1.0
43	0x3f800000	1.0
44	0x3f800000	1.0
45	0x3f800000	1.0
46	0x3f800000	1.0
47	0x3f800000	1.0
48	0x3f800000	1.0
49	0x3f800000	1.0
50	0x3f800000	1.0
51	0x3f800000	1.0
52	0x3f800000	1.0
53	0x3f800000	1.0
54	0x3f800000	1.0
55	0x3f800000	1.0
56	0x3f800000	1.0
57	0x3f800000	1.0
58	0x3f800000	1.0
59	0x3f800000	1.0
60	0x3f800000	1.0
61	0x3f800000	1.0
62	0x3f800000	1.0
63	0x3f800000	1.0
64	0x3f800000	1.0
65	0x3f800000	1.0
66	0x3f800000	1.0
67	0x3f800000	1.0
68	0x3f800000	1.0
69	0x3f800000	1.0
70	0x3f800000	1.0
71	0x3f800000	1.0
72	0x3f800000	1.0
73	0x3f800000	1.0
74	0x3f800000	1.0
75	0x3f800000	1.0
76	0x3f800000	1.0
77	0x3f800000	1.0
78	0x3f800000	1.0
79	0x3f800000	1.0
80	0x3f800000	1.0
81	0x3f800000	1.0
82	0x3f800000	1.0
83	0x3f800000	1.0
84	0x3f800000	1.0
85	0x3f800000	1.0
86	0x3f800000	1.0
87	0x3f800000	1.0
88	0x3f800000	1.0
89	0x3f800000	1.0
90	0x3f800000	1.0
91	0x3f800000	1.0
92	0x3f800000	1.0
93	0x3f800000	1.0
94	0x3f800000	1.0
95	0x3f800000	1.0
96	0x3f800000	1.0
97	0x3f800000	1.0
98	0x3f800000	1.0
99	0x3f800000	1.0
100	0x3f800000	1.0
101	0x3f800000	1.0
102	0x3f800000	1.0
103	0x3f800000	1.0
104	0x3f800000	1.0
105	0x3f800000	1.0
106	0x3f800000	1.0
107	0x3f800000	1.0
108	0x3f800000	1.0
109	0x3f800000	1.0
110	0x3f800000	1.0
111	0x3f800000	1.0
112	0x3f800000	1.0
113	0x3f800000	1.0
114	0x3f800000	1.0
115	0x3f800000	1.0
116	0x3f800000	1.0
117	0x3f800000	1.0
118	0x3f800000	1.0
119	0x3f800000	1.0
120	0x3f800000	1.0
121	0x3f800000	1.0
122	0x3f800000	1.0
123	0x3f800000	1.0
124	0x3f800000	1.0
125	0x3f800000	1.0
126	0x3f800000	1.0
127	0x3f800000	1.0
